lenet.pth (torch, 249799 bytes, 10 tensors)

0.weight f4 [6, 1, 5, 5]
000000 06 5e 46 bd ab 12 0a 3e ee a4 ba 3d 41 f2 e7 3e
       -0.04842951 0.13483684 0.09113489 0.45302013
000010 f9 df a3 3e fb ef 10 3e 10 2f ed 3e e7 70 d1 3e
       0.32006815 0.14154045 0.46324968 0.4090645
000020 b1 78 be 3e 7d 0d 88 3e ed 6d 25 3e 41 37 d4 3d
       0.37201455 0.2657279 0.16155215 0.10362101
000030 d5 2d 24 bd 32 05 99 bc 5a 90 bc 3e f3 72 f8 bd
       -0.04008277 -0.018679235 0.36828882 -0.121313
000040 05 5a 8b be f2 81 a9 be c9 f3 92 be c7 1c 17 3e
       -0.27217117 -0.33106953 -0.28701618 0.14757071
000050 e3 12 af be 05 6d f7 be 9c 65 69 bf 6d f4 14 bf
       -0.34194097 -0.48325363 -0.9117067 -0.58185464
000060 f1 de 61 be 88 57 bd 3e 47 8e 8c 3e cd d7 c0 3e
       -0.22057702 0.36980844 0.274523 0.37664643
000070 d6 ef 1e be f5 da 9e be c8 1a 92 3e 99 41 94 3e
       -0.15521178 -0.31026426 0.28536057 0.28956297
000080 5c e8 9c bd 35 c1 0a bf 4b 15 cd be 33 cc dc 3e
       -0.076615065 -0.5420106 -0.40055308 0.43124542
000090 4b 8e 12 3e f4 cc 32 be 7e eb 82 bf 23 8b 84 be
       0.14312093 -0.17460996 -1.0228117 -0.25887403
0000a0 c8 45 e6 3d 9a 97 a0 3e f6 38 e4 be a3 fe 2b bf
       0.112437785 0.31365663 -0.44574708 -0.6718542
0000b0 ae 02 80 3e bd 20 a1 3e 41 03 98 3e c3 6e aa be
       0.25002044 0.3147029 0.29689983 -0.3328763
0000c0 86 91 99 be a4 a5 ba 3e 8b 72 53 be 55 ce 83 be
       -0.29993838 0.364545 -0.20649163 -0.25743356
0000d0 29 f7 0f be fc c4 92 be 15 8a 73 bc 53 f1 3f bf
       -0.14059128 -0.28665912 -0.014864464 -0.74977607
0000e0 00 04 ce be 08 98 95 bc 3c 82 bf 3e b3 47 84 3d
       -0.40237427 -0.01826097 0.37404048 0.06458988
0000f0 06 47 b5 be 4f e4 ef 3c a4 8c c3 3e bd 44 1b 3f
       -0.3540575 0.02928367 0.38193238 0.6065176
000100 a3 c5 18 3e e9 1c 70 bc a3 50 45 3e 49 6b 01 3f
       0.14919142 -0.01465533 0.19269042 0.5055433
000110 36 26 fe 3e d5 7d d3 3e 58 1e a1 be ba bd ae 3d
       0.49638528 0.4130694 -0.31468463 0.08532281
000120 5b 1a 89 bd 0d 14 32 be 61 73 cf bd f2 55 18 3e
       -0.0669448 -0.17390461 -0.10129429 0.14876536
000130 e8 bc 3d 3e a2 17 d9 3d 47 72 c8 3d b7 47 cb 3c
       0.18529093 0.10600211 0.09787422 0.02481447
000140 74 36 ec bd da 5b 17 be 99 dc 9c 3e c2 7d a9 3e
       -0.115338236 -0.14781132 0.30637053 0.33103758
000150 27 e8 db bc 5a 7d 48 be d9 d0 4e bd 52 2a 68 3c
       -0.026844097 -0.19579068 -0.05049214 0.014170246
000160 f0 05 5a 3e 35 fe a6 bb 69 15 1e be a1 c8 6e 3d
       0.21291327 -0.005096222 -0.15437855 0.058296803
000170 32 90 b5 3e 96 1a c8 bd e0 7a 41 be 4c 17 63 3e
       0.35461575 -0.09770696 -0.1889453 0.22176856
000180 ed 25 97 3e 06 fc d6 3d 53 1f 70 be 93 a6 50 bd
       0.29521123 0.104972884 -0.23449449 -0.050940108
000190 e4 f4 b7 3e 17 ef 84 3e 3f cf 58 3e 2d b2 9a 3e
       0.35929024 0.2596366 0.21172808 0.30214062
0001a0 79 d9 79 3c d6 e2 8d 3c 41 fc 8e 3e 92 73 db 3c
       0.015249603 0.017320078 0.2792683 0.026788507
0001b0 c3 29 1b 3e fb 35 b7 be 6b 1c d3 be 81 95 47 bf
       0.1515265 -0.3578337 -0.4123262 -0.779625
0001c0 b1 26 d5 be dd 2b c1 be 97 2c a5 be 87 cf 50 be
       -0.41631082 -0.37728778 -0.32260582 -0.20391665
0001d0 fd 39 01 bf 1a a5 bb be 8f 2f 99 bd 5c cd 3e 3e
       -0.5047911 -0.366494 -0.07479774 0.18633026
0001e0 ea d2 f1 3e be d5 e9 3e 1d 7a d8 3e 02 2a 9a 3e
       0.47231227 0.45670885 0.42280665 0.30110174
0001f0 b6 55 27 3e a0 a4 a2 bd 4a 55 51 bd ff 90 ed bc
       0.1634129 -0.07941556 -0.05110673 -0.028999804
000200 72 ac 86 be 18 9e 9c be 65 91 21 3e 11 fc 0a be
       -0.2630344 -0.30589366 0.1577812 -0.13572718
000210 bd 47 79 be f9 e6 17 be 2d cf 86 bd c9 df 3d 3e
       -0.24343772 -0.14834203 -0.065824844 0.18542399
000220 cb 8b 28 3e 3e 61 2e 3d 84 97 f9 3b 94 9f e7 bd
       0.16459577 0.042573206 0.007616939 -0.11309734
000230 16 22 f4 3c 2f 3f de 3e b6 a7 bc 3e 50 dd e5 3d
       0.02980141 0.4340758 0.36846703 0.11223853
000240 60 a9 60 3e fc ff c2 3c cb ab 3e 3d 3c 4f 86 3e
       0.21939611 0.023803703 0.046550553 0.26232326
000250 79 80 54 3e 43 90 34 3e
       0.20752133 0.17633156

0.bias f4 [6]
000000 0c 8a 2e 3e 16 0f 8c 3d e7 f0 b0 bc 8e ed c6 be
       0.17044848 0.06838815 -0.021599246 -0.38853115
000010 c8 a0 4a bc 72 6f 5e be
       -0.012367435 -0.217222

3.weight f4 [16, 6, 5, 5]
000000 e1 1a a7 be f3 d0 1d be 65 17 a4 be b8 5b 82 be
       -0.32637694 -0.15411739 -0.320491 -0.254606
000010 19 e4 b6 bd 29 3b 99 3d f0 7f 60 3e 3e 5a 9a 3d
       -0.08930225 0.07481987 0.21923804 0.075367436
000020 67 e8 e4 3c 42 32 0e bd 79 1c 58 3d e0 0f 03 3e
       0.02794285 -0.0347159 0.05276153 0.12799025
000030 bf 82 00 3e 8c 21 ea 3d 20 c2 ac 3e 81 a4 a3 3d
       0.12549876 0.1143218 0.33741856 0.07990361
000040 a1 18 60 3e 4b 31 26 3e 28 6c 5a 3d 6b be 62 be
       0.21884395 0.16229741 0.053325802 -0.22142951
000050 34 81 01 bf dc b5 46 bf f2 12 1b bf 0b 28 f9 be
       -0.50587773 -0.77621245 -0.60575783 -0.48663363
000060 1e db bf be 0d d9 f2 3d 88 5a 40 bd f2 e7 d7 3d
       -0.3747186 0.118578054 -0.046961337 0.10542287
000070 0c 57 2d 3d 7f 59 5c bd 84 e7 aa 3d a4 e0 c3 bd
       0.042319342 -0.053796288 0.08344939 -0.09564331
000080 b9 85 8d 3e b8 f0 21 3c 07 97 5e be 18 08 e7 bd
       0.27641085 0.009884052 -0.217373 -0.11280841
000090 9c 2f 2a bd 27 58 6a 3e b4 6b f9 3b fd 3d 03 be
       -0.04154931 0.2288519 0.007611716 -0.12816615
0000a0 a4 44 55 bd bf 2c 54 3e 32 bd c4 bb 19 fa a4 be
       -0.052067414 0.20720194 -0.006003999 -0.3222206
0000b0 aa e9 a8 be ea 69 0c bd c4 18 eb 3b 75 b2 c1 bd
       -0.32990772 -0.034280695 0.007174583 -0.09457866
0000c0 93 72 b2 be 42 02 9a be 38 c3 a3 bd 0d 9d f3 bd
       -0.34853038 -0.30079848 -0.079962194 -0.118951894
0000d0 83 ba 67 be c1 19 5d be 2c c8 a1 be e4 d4 0e 3d
       -0.22629742 -0.21591856 -0.31598032 0.034870997
0000e0 be b0 9d bb 22 3b 2f be bf f7 22 3e 16 ef 9d 3e
       -0.004812329 -0.17112401 0.1591482 0.3084647
0000f0 6c 33 47 3e f2 2e 02 bd b9 7d 73 3d c9 dc fa 3d
       0.1945321 -0.03178305 0.05944607 0.12249143
000100 c7 ba fe 3b 15 5c 58 be 6b ba 60 bf 03 c4 5f bf
       0.0077737304 -0.21128877 -0.8778445 -0.87408465
000110 fc eb 28 bf f4 05 d0 be a1 8b 6b bd 4c d2 b4 bd
       -0.65985084 -0.40629542 -0.057506207 -0.088291734
000120 b8 1b 29 3e ee 78 c9 3d 5e 52 93 3e 3c 00 ea bd
       0.1651448 0.09837519 0.2877378 -0.11425826
000130 08 19 95 bc 92 a3 39 be 24 c1 f0 bc bd 0a 43 be
       -0.018200412 -0.18128803 -0.029388972 -0.19047065
000140 8d 03 b8 bd 52 87 46 3d f4 a9 64 bd 55 82 81 bb
       -0.08985052 0.048468895 -0.055826142 -0.0039523044
000150 c9 ab 9f bd c8 a8 c3 3c 5b b3 5a bd 07 29 f0 be
       -0.07796437 0.023884192 -0.053393703 -0.469063
000160 33 73 11 be 0c b7 89 bd 7c 95 ac 3d 90 6a 1d be
       -0.14204101 -0.067243665 0.084269494 -0.15372682
000170 b1 91 e9 be e8 e7 e8 be 77 85 9e be c1 1e 71 bd
       -0.45618966 -0.4548943 -0.309612 -0.05886722
000180 23 cf e3 be 49 3b 0c bf be b4 e7 be 8f 19 58 bd
       -0.4449397 -0.5477796 -0.45255083 -0.05275875
000190 3c e8 97 3e 70 89 c2 3e 6b 04 77 3e ab a9 39 bd
       0.29669368 0.37995481 0.24122779 -0.045327824
0001a0 65 08 85 3d 91 5b 9c 3e 80 89 92 3e 06 86 13 3e
       0.06495742 0.3053861 0.2862053 0.14406595
0001b0 22 96 aa 3e da c1 4e 3e 57 ca 55 3d 62 e9 44 3d
       0.33317667 0.20191136 0.05219492 0.048074134
0001c0 5f 70 4a bd f5 3d 29 bd 2f 25 00 3c 31 7e 7c bc
       -0.04942357 -0.041318852 0.007821365 -0.015410946
0001d0 e0 d3 e2 3e 0d ec e9 3e 0c 5d d1 3e 4c 45 13 3f
       0.44302273 0.45687905 0.40891302 0.57527614
0001e0 07 a0 9f 3e f5 6a ee 3e 02 ba c8 3e 82 0a ca 3e
       0.3117678 0.46565977 0.39204413 0.39461142
0001f0 3f b6 ce 3e 1a e3 e9 3d b5 17 a4 3d b4 84 01 be
       0.40373418 0.11420269 0.08012334 -0.12648278
000200 ee 54 a5 bd 31 36 90 bd ae cf 25 3e 4b 25 c9 3c
       -0.0807284 -0.07041586 0.16192505 0.024553915
000210 df ee e0 bd ee cd 70 bd ab 32 86 bb b9 f2 09 bc
       -0.10983061 -0.05879014 -0.0040953956 -0.008419686
000220 7f 53 1c be e5 11 88 be 42 11 00 bf 59 2c 02 bf
       -0.15266226 -0.26576152 -0.50026333 -0.5084892
000230 f5 05 9f be f3 23 bd be 44 89 fc be f5 83 08 bf
       -0.31059232 -0.3694149 -0.49323475 -0.5332635
000240 e4 27 a9 be 0d 79 5c bc 43 dd e5 3d 74 e8 9d 3d
       -0.33038247 -0.013456595 0.11223843 0.077103525
000250 c1 fd 41 3e f8 31 81 3e f5 68 bb be a5 d9 d8 be
       0.18944456 0.25233436 -0.36603513 -0.4235355
000260 17 c2 14 be 96 aa ff 3d 86 dc ea 3e b5 b4 a4 be
       -0.14527164 0.124837086 0.4587137 -0.3216912
000270 4b ac d6 3d 31 18 7a 3e 84 03 97 3e e3 40 24 3c
       0.10482081 0.24423291 0.2949487 0.010025236
000280 e9 4c 22 3e 7d b5 56 bc 42 ce 8b bd 6f 28 26 bf
       0.15849651 -0.013104794 -0.0682645 -0.64905447
000290 66 d3 06 bf 35 a6 55 be 36 92 41 bf 7b 03 42 bf
       -0.5266632 -0.20864184 -0.75613725 -0.7578656
0002a0 7e 4f 4f be 14 f8 1c 3f 09 e4 02 bf 53 80 4a bf
       -0.20245168 0.6131604 -0.51129204 -0.7910206
0002b0 83 95 57 be e9 e0 04 3e 0e 2f 11 3e 70 91 95 bd
       -0.21053128 0.12976421 0.14178106 -0.073031306
0002c0 85 a4 11 bd 85 c6 ac 3b 75 95 98 3e ed 2b f9 3e
       -0.03555729 0.005272689 0.29801527 0.48666325
0002d0 71 a1 3a bd ba ce 92 3e 03 4d 51 3e c2 fc b9 3e
       -0.04556412 0.28673345 0.20439534 0.3632565
0002e0 9b e4 bd 3d 55 6b 8e 3e 67 a1 e9 3e b2 dd e8 3d
       0.09272119 0.27816263 0.45630953 0.1137041
0002f0 72 ff 11 be 79 79 06 bf 69 16 27 3e 2b 23 3b 3e
       -0.14257601 -0.525291 0.16317143 0.18275134
000300 3f ed 54 3d 3a 8b 87 be 57 1b a1 be d8 c7 6d be
       0.051984068 -0.2647341 -0.3146617 -0.23220766
000310 3a 87 25 bd 55 62 86 bc 64 6b 59 bd 6e 31 84 3e
       -0.040412165 -0.01640431 -0.05308093 0.25818962
000320 03 c1 c4 bd ec 29 4c 3c ec f5 d6 3d ff 42 93 3e
       -0.096071266 0.012461167 0.104961246 0.2876205
000330 d8 e6 0b 3e 0d a9 a2 3e 7b 68 2b 3e 0e 08 59 3c
       0.13662279 0.317696 0.16739075 0.013246549
000340 54 df 34 bf 02 db b8 be b8 36 a0 3e 80 8a 06 bf
       -0.7065327 -0.3610459 0.31291747 -0.52555084
000350 d2 47 cb bf e5 26 ad be e6 b4 bf 3e 3c ec 93 be
       -1.5881293 -0.33818737 0.37442702 -0.2889117
000360 98 b1 8b bf 1e 1a 81 be 07 a1 8c 3e da 83 25 3e
       -1.0913572 -0.25215238 0.27466604 0.16163579
000370 d9 de 13 be db 44 d1 be b4 2d 73 bc 62 7e 1e 3e
       -0.14440478 -0.40872845 -0.014842439 0.15477899
000380 57 c9 89 be 70 95 b5 be 0f a0 9d bc f7 ba ca 3d
       -0.26911423 -0.35465574 -0.019241361 0.09898942
000390 33 46 96 3e 06 40 19 3d cf 0c 0e 3e 78 60 53 3d
       0.29350433 0.037414573 0.13872074 0.05160567
0003a0 fb 1c da 3d 93 e9 d0 3c ff cc b7 be f4 68 18 3d
       0.10650059 0.025502002 -0.35898587 0.037209466
0003b0 fc c3 f5 bd 65 cb 01 bf 94 f4 11 bf 2a 8d 64 3d
       -0.12000272 -0.5070098 -0.5701382 0.055798687
0003c0 33 33 f3 bd 3a 88 bb be 5b c1 15 bf a3 95 df bd
       -0.11875 -0.3662737 -0.5849816 -0.10917213
0003d0 20 e7 7e 3e 7f 3e 24 bd 22 fb 59 be 3b e2 0a be
       0.24892855 -0.040098663 -0.21287206 -0.13562863
0003e0 de 97 00 3d 38 90 e5 bb 59 72 a2 3e 5f 25 58 be
       0.03139483 -0.0070057176 0.31727865 -0.21108006
0003f0 5f 7c 48 bf 3e 0a 39 bf 65 50 44 be 3e 4e 8c 3e
       -0.78314775 -0.72281253 -0.19171293 0.27403444

3.bias f4 [16]
000000 b6 ec 3d 3e 45 93 04 3e e7 79 c8 3d aa 08 5e 3e
       0.1854733 0.12946804 0.09788876 0.21682993
000010 1a 06 82 bc dc 59 07 3d 7e 40 0f 3e fb a0 76 3d
       -0.01587205 0.03304468 0.13989446 0.060212117
000020 df fb 7c 3e 03 62 1c 3a 0b 62 aa 3d b0 fe 00 bc
       0.24705456 0.00059655326 0.083194815 -0.007873222
000030 8e e3 b7 bd 1e c4 48 3e 78 a7 65 3e b6 30 78 3d
       -0.089789495 0.19606063 0.22427166 0.06059333

7.weight f4 [120, 400]
000000 1d 13 5f bd 26 c4 71 be 7d 67 bf bd 60 6c 85 3e
       -0.054461587 -0.23609981 -0.09345911 0.26059246
000010 8b 71 1a 3e 09 87 4d be c6 e1 26 3d 10 ac eb 3d
       0.15082376 -0.20071043 0.040742658 0.11507428
000020 b8 5a 64 3d fe 62 2a 3d 87 d7 d0 be 4e 7a 8d be
       0.05575058 0.041598313 -0.40789434 -0.27632374
000030 be 28 92 3d d7 7a 25 3d e3 ff 0b 3e 3e 3c 7c 3d
       0.07136677 0.040400352 0.13671832 0.06158089
000040 b8 2c 3d bd 67 a3 94 3b 77 84 2f 3d 4c 23 56 bd
       -0.046185225 0.0045360806 0.042850938 -0.052279755
000050 7c 40 7a be 92 b8 57 bb 65 59 8c 3c 8f 22 52 bd
       -0.24438661 -0.003291641 0.01713247 -0.05130249
000060 d4 e8 82 3d e7 9a 3f be 6f f3 be 3e b1 f1 b3 3e
       0.06392065 -0.18711434 0.372951 0.35145333
000070 83 c4 94 3e 4c f9 89 3d 5a e1 92 3d ca b5 95 3e
       0.29056177 0.06737003 0.07171889 0.29240257
000080 28 38 e8 3e a6 11 f6 3d e3 14 f1 bd 27 75 9f be
       0.45355344 0.12015085 -0.11771562 -0.31144068
000090 f4 21 29 3e 82 d6 14 3a 8a 43 9f bc e9 a4 90 bd
       0.16516858 0.0005677716 -0.019441385 -0.07062704
0000a0 2b 2a 47 be 68 bf 33 be 87 a2 be ba 6f e0 77 3e
       -0.1944968 -0.17553484 -0.0014544287 0.24206708
0000b0 b4 d4 ed 3d 6e ac 1c be d9 f7 d4 bd 3a aa 8b bd
       0.116128355 -0.15300152 -0.10398836 -0.068195775
0000c0 f2 e6 3a be 03 2b d7 bd 15 f9 fa be ec 22 e2 be
       -0.18252161 -0.10506251 -0.4901816 -0.44167268
0000d0 32 1b bd bd 0e ef 99 3c 1a e3 09 3e d3 90 39 bf
       -0.09233703 0.018790748 0.13465539 -0.7248661
0000e0 47 df fa be 3d bf 4c be b8 f9 4a 3d e0 4a 8d be
       -0.48998472 -0.19994827 0.049554557 -0.27596188
0000f0 d7 bd 9d bd 04 a8 1b bd fa fb e8 3d 87 b2 45 3e
       -0.07702225 -0.03800203 0.11376186 0.19306384
000100 38 84 ac 3e fd 63 1f 3e 31 b5 42 3d b2 0c 08 3d
       0.33694625 0.15565486 0.04753608 0.033215232
000110 ce 52 f2 3c 82 53 e8 bd 85 8d 00 be 27 0b 12 be
       0.0295805 -0.11344053 -0.12553985 -0.14262067
000120 a0 82 72 3d 6e 25 83 3d 8a 11 fb bc 9c ea 9c be
       0.059206605 0.064036235 -0.030648012 -0.30647743
000130 a9 34 5a bf 89 8b 11 bf 01 40 14 3c 2e 98 ab bc
       -0.85236603 -0.5685354 0.009048463 -0.020946588
000140 c9 a4 05 bf e0 c7 1f bf e3 1d b1 3d 93 67 5d 3c
       -0.5220457 -0.6241436 0.086482786 0.013513464
000150 ae 1a 88 be b2 d4 a9 bd db 99 2f be 96 ba ab 3d
       -0.26582855 -0.082925215 -0.17148535 0.08385198
000160 08 39 6e 3d 1a ec 5d bd 21 6e 47 3e 90 36 6e bd
       0.058159858 -0.054180242 0.19475605 -0.058157504
000170 08 46 3e bd 6c 12 b3 bd d0 b8 85 be bc a7 a1 be
       -0.046453506 -0.08743748 -0.26117563 -0.31573284
000180 87 26 cb bc 95 97 1f 3d d2 9f 52 3e 51 c0 bd 3e
       -0.024798645 0.03896292 0.20568779 0.37060788
000190 d3 b8 05 3e 28 a2 ee bd f0 cf 1e 3e 6c 57 68 3e
       0.13058786 -0.116520226 0.1550901 0.22689599
0001a0 ea 06 65 3e d1 bf 2a be a5 9b 3e bc 9e 56 e2 bd
       0.22365919 -0.16674735 -0.011633788 -0.11051677
0001b0 01 58 87 3e b4 ff d5 3d 3b 59 45 be 63 03 9f bd
       0.2643433 0.10449162 -0.1927232 -0.07764318
0001c0 24 c6 9d bd b7 1a 2e 3e d4 f4 2f bd 80 f2 b2 3d
       -0.07703808 0.17002378 -0.042958096 0.087376595
0001d0 ae 45 b2 3c 0b d3 13 3d f2 82 b8 3c 3b 90 6f 3c
       0.021761741 0.036089938 0.022523377 0.01462179
0001e0 38 5a a1 3d 6b d4 a3 3c 83 ed 0e be ef 89 48 be
       0.07878536 0.01999875 -0.13957791 -0.19583867
0001f0 24 bf 59 3e eb 94 4a be d5 39 22 bd 9f af 52 be
       0.2126432 -0.1978337 -0.039605934 -0.20574807
000200 5a 93 2a be aa 9f 3f bd 75 af 93 be 42 8f 10 be
       -0.16657773 -0.046783127 -0.288448 -0.14117149
000210 ad 2e 9c bb 30 26 e7 3d 44 26 94 3c 94 40 6b 3c
       -0.0047663064 0.112865806 0.018084653 0.014358658
000220 79 ea b3 3d 7b 18 c1 be 01 ee 3a 3e 32 0d 19 3e
       0.087849565 -0.3771399 0.18254854 0.1494644
000230 13 a0 e3 bd 7f 31 c9 bd be 1b 4f be 29 ec c9 3d
       -0.11114516 -0.09823894 -0.20225427 0.09859497
000240 ef a8 95 3e 64 77 90 be 63 6c 89 3e c7 29 bd bc
       0.2923045 -0.28216088 0.26840505 -0.02309121
000250 f6 7f 97 3e e4 3e d3 3d 40 ab 05 bf e0 d5 d9 be
       0.29589814 0.1031473 -0.5221443 -0.42545986
000260 03 75 64 be 57 27 50 be 4a 84 76 3e 8e bc 09 bf
       -0.22310261 -0.20327507 0.24073902 -0.53803337
000270 f5 29 69 be 30 bc 31 3e c0 d3 97 3e a4 37 d7 3d
       -0.22769912 0.17356944 0.2965374 0.105086595
000280 48 f7 bc bd 32 2f 23 be b3 c7 51 3c 37 3c ba 3d
       -0.09226853 -0.15935972 0.01280396 0.09093516
000290 1d 96 57 3e 8a 06 15 bf a6 95 af bd ef 9b 1b bd
       0.21053357 -0.582131 -0.08573465 -0.037990507
0002a0 be 83 c6 3d 72 0b 1e ba e4 23 dc bd f0 d9 19 be
       0.096930966 -0.0006028927 -0.10749033 -0.15024543
0002b0 80 7b 4e 3e 4f 70 1a be be 55 1c 3e 6b d0 1c bf
       0.20164299 -0.15081905 0.15267083 -0.6125552
0002c0 4c 7e a1 be 67 cc 4d be e3 21 3a 3d 5a 98 59 3e
       -0.3154167 -0.20097505 0.045442473 0.21249524
0002d0 36 af 42 bf 0d af 8e be 57 b0 3d bd 8a fb 1d be
       -0.760486 -0.27867928 -0.04631075 -0.15427986
0002e0 4e 25 6a 3d ba 4b b5 be 54 44 99 be be d7 45 3e
       0.057164483 -0.35409337 -0.29934943 0.1932058
0002f0 01 27 27 3c f9 b7 c6 3e 3a 14 03 3d 55 da cc bd
       0.01020217 0.38812235 0.03200171 -0.10002581
000300 47 b2 b7 3c 27 c7 ed 3d d7 41 4c be 16 e4 43 be
       0.022423876 0.11610251 -0.19946991 -0.19129977
000310 2a 6e 04 be 59 70 43 3e 56 f1 18 3e ac a9 ac bd
       -0.12932649 0.19085826 0.14935812 -0.084308
000320 3a 19 03 bf 29 ed 84 be 85 79 a6 bc 26 b9 54 be
       -0.5121037 -0.2596219 -0.020321617 -0.20773754
000330 2e a3 e1 bd 8c fc 56 be 17 71 04 3e e8 c2 b7 3d
       -0.11017452 -0.20994776 0.12933765 0.08972722
000340 2c 94 6d bd b3 4c be 3d a6 c4 61 bd b2 de ac 3d
       -0.058002636 0.09291973 -0.05511918 0.08440913
000350 b6 a8 73 3d d7 67 59 3d 0d 6a 22 3e d5 75 01 3c
       0.059487067 0.053077545 0.15860768 0.0079016285
000360 a0 4f e5 3c 46 22 00 3d b1 ec 4e 3d be d8 ba 3d
       0.02799207 0.031282686 0.050518695 0.091233715
000370 cf aa dc be 83 49 6f be e2 43 ad bc 48 f6 2b bd
       -0.43099067 -0.23367886 -0.021150533 -0.04198292
000380 60 3e 80 bd ee f5 f5 bd 82 b9 35 3e bb 5e 8a 3e
       -0.06261897 -0.12009798 0.17746547 0.270254
000390 c8 db 9b 3e 30 fd 05 3e 78 4c bb 3e 3d 19 83 3e
       0.30441117 0.13084865 0.3658178 0.25605193
0003a0 a8 38 b3 3e e5 37 a9 bd c4 87 9d bd 1e d6 29 3e
       0.35004163 -0.08262614 -0.07691911 0.16585585
0003b0 3e 62 a0 bd ea f7 fc bc d3 a6 93 bd 59 d1 2a be
       -0.07831238 -0.030879933 -0.072095536 -0.16681422
0003c0 db 53 66 be c2 27 d5 3d 51 d9 46 be e5 b8 58 3e
       -0.22492926 0.10407974 -0.19418837 0.21164282
0003d0 76 9e 2c 3e 9b 0a 14 bd b1 1b 89 be 5e a0 25 bd
       0.16857323 -0.036142927 -0.2677894 -0.04043614
0003e0 65 e8 97 3e f4 e6 d5 3d 58 dd 5f 3c a1 a2 54 3e
       0.2966949 0.104444414 0.013663612 0.20765163
0003f0 01 32 cf 3e 58 21 5a 3e 25 bc ba bd 93 a0 4c 3e
       0.40467837 0.21301782 -0.09117917 0.19983129

7.bias f4 [120]
000000 ae 94 b8 3c 46 d8 2e 3e 3e fd 5a 3d 43 18 34 3b
       0.022531833 0.1707469 0.053464167 0.0027480281
000010 6e 79 c3 bd 4a c7 7f 3e 9b 88 8d bd d1 e5 a1 bd
       -0.09544645 0.24978366 -0.06910821 -0.07905162
000020 d8 1e dc 3d 1e 0e 36 3e 4d 99 e3 3c c0 a5 fd ba
       0.107480705 0.17778823 0.02778306 -0.0019351766
000030 a3 c1 9a 3d b7 df 83 bd 07 de 0d bd 49 90 e8 bc
       0.075564645 -0.064391546 -0.03463557 -0.028389113
000040 c4 9d be bd 2b de b1 3d 3c cf 61 3e ce 76 bb bb
       -0.09307435 0.08684953 0.2205171 -0.0057209497
000050 b6 09 a5 3d d9 c2 55 3e 09 b8 79 bd c7 6f 87 bd
       0.08058493 0.2087511 -0.060966525 -0.06613117
000060 23 e1 90 bd 36 ec 96 bd 0a 9f 5b be 3b 42 dc 3b
       -0.070741914 -0.073692724 -0.21447387 0.0067217625
000070 aa ad 82 bc b1 e7 3c bd b2 e3 28 3e 8b 7a 43 bd
       -0.01595195 -0.046119396 0.16493109 -0.047724288
000080 e4 78 08 bd 0d 51 ed 3d a5 71 ec bc 94 2f c6 3d
       -0.033318415 0.11587725 -0.028862784 0.096770436
000090 6c 00 83 bd ef 88 0f bd d4 a7 52 be 61 43 fc bd
       -0.06396565 -0.0350427 -0.20571834 -0.12317539
0000a0 73 e1 c2 bc b0 86 41 be 75 51 f0 bb e5 96 3d bd
       -0.023789143 -0.18899035 -0.007333929 -0.046286482
0000b0 64 04 88 bd 84 c8 d7 3d 1c 65 72 3e 41 f1 55 b8
       -0.066414624 0.10536292 0.23671383 -5.1007843e-05
0000c0 2b 53 2e bc 48 02 69 3e 39 15 42 be 7c 38 1d bd
       -0.010639946 0.22754776 -0.18953408 -0.038383946
0000d0 39 a3 40 3d 06 16 65 3d 50 ea 82 bd 35 24 0a be
       0.04703066 0.055929206 -0.06392348 -0.13490374
0000e0 3e 8c 0b bd 7f 04 fe bc a8 b5 47 bd f9 b6 29 3e
       -0.034069292 -0.031008003 -0.048757225 0.16573705
0000f0 9f c7 09 bd 70 e0 04 3d 6c 77 9e 3c b2 a9 aa 3c
       -0.03363764 0.032440603 0.019344054 0.02083287
000100 e5 77 7a bd e8 7f 57 bb 48 09 da bc ec c4 45 3d
       -0.061149497 -0.0032882635 -0.026615754 0.048283502
000110 60 03 49 3e e2 f5 a3 3c 62 2e af bd b3 dd 61 3d
       0.19630194 0.020014707 -0.08553769 0.05514307
000120 f1 04 a4 bd fb 59 06 bd 6c 6a 63 bd e0 4e f0 3c
       -0.08008755 -0.032800656 -0.055521414 0.029334486
000130 bd b5 2e bc 7d 49 ad bd 4f dd fa bc 0f e7 15 bd
       -0.010663447 -0.084612824 -0.030623106 -0.036597308
000140 e8 d1 d9 3c 42 b0 d7 3d 8f 08 23 be 5f be 0a 3e
       0.026589349 0.105316654 -0.15921234 0.13549183
000150 64 03 00 3c a3 60 8b bd cb e5 04 bd db e8 cc 3b
       0.007813308 -0.06805541 -0.03244571 0.0062533445
000160 75 fe 98 3e 94 bb 32 3d 8f bc 83 bb 58 5b 72 be
       0.29881635 0.04363592 -0.0040202807 -0.23667657
000170 c2 23 09 be 42 96 e5 3d 05 15 4f 3d 5c 5c fe 3b
       -0.13392547 0.112103 0.050557155 0.007762475
000180 ca e7 dd bd ef d2 0b be 95 bf 7d bd 86 4d 0f bd
       -0.10835226 -0.13654684 -0.061950285 -0.03498604
000190 9f bb 87 bb 41 90 de 3d 59 09 a8 3d d9 01 04 bd
       -0.004142239 0.10867358 0.08204908 -0.032228325
0001a0 a7 19 b2 3d 56 31 61 3d 95 9f 6e 3e f8 6f 17 bd
       0.08696299 0.05497869 0.23303063 -0.036972016
0001b0 fa c6 bc 3d 27 d0 14 3e 48 43 5d bb b8 6f 2f 3e
       0.09217639 0.14532529 -0.0033762027 0.17132461
0001c0 3b f1 f3 bd 8c c6 8c bd 0f 8b 91 bd ef e4 8d 3e
       -0.119112454 -0.06873807 -0.071066014 0.27713725
0001d0 15 5c 79 3e d3 c6 10 be 79 28 c0 3d 4a 5e a9 bd
       0.24351533 -0.14138345 0.093827195 -0.08269937

9.weight f4 [84, 120]
000000 89 14 b7 3d 30 7e 50 bb 20 24 a7 bc c4 0b 84 bd
       0.08939464 -0.0031813495 -0.020402968 -0.064475566
000010 54 cc 9a bc 09 75 90 be 9a fa 7c bd 06 74 13 bd
       -0.01889626 -0.2821429 -0.06176243 -0.03599932
000020 ad c7 81 3e 31 77 05 3e ad 89 92 bd cf 00 ff 3d
       0.25347653 0.13033749 -0.07155166 0.12451326
000030 45 2e 15 3c c5 fb c1 3c 23 91 e5 3d b7 8f f6 3c
       0.00910527 0.023679623 0.11209323 0.030097825
000040 5b d1 32 3b 7b 1c 8b be 90 71 71 3d 2b ee 97 bd
       0.002728543 -0.27170166 0.058946192 -0.07418474
000050 69 5e 83 3e 6e cf 89 3d 62 4c 8d be ea 2d 3f 3d
       0.25657967 0.06729017 -0.27597338 0.046674646
000060 6c 45 f5 3c 91 8b 96 3d b3 c3 a4 be 8b 9c 88 3d
       0.02994033 0.07350839 -0.32180557 0.06670483
000070 09 0d 4d 3c 10 81 88 be 20 06 6e 3d f7 ea 01 3d
       0.012515315 -0.26660967 0.05811131 0.03171822
000080 7c e3 ac 3c 69 9b 6d 3d 86 f9 e8 be c9 fd 88 3e
       0.021104567 0.05800954 -0.4550287 0.26756123
000090 79 ad a5 3d 67 01 2e 3d 27 dc c4 be 42 b0 d2 3e
       0.08089728 0.042481806 -0.38449213 0.411501
0000a0 57 dc 89 be 41 b4 0e 3e d3 40 4f bd fb 97 c9 3d
       -0.26925918 0.13935949 -0.05059893 0.09843441
0000b0 50 e6 e9 3d 75 27 18 3f 0f 75 46 3e 45 d2 9d 3e
       0.11420882 0.59435207 0.19380592 0.30824485
0000c0 7c dd 01 bf c5 cc 0d 3e f5 f9 2b 3e 82 af 60 3d
       -0.50728583 0.13847645 0.1679457 0.054854877
0000d0 0f 51 76 be ce b2 c3 3e 6e da c2 3d 0e 9b bf be
       -0.24054359 0.38222355 0.095143184 -0.37422985
0000e0 79 74 a0 3e 1d 6f be bb d7 99 a6 3c ad 7b 51 be
       0.31338862 -0.0058115856 0.020337028 -0.20457335
0000f0 54 9c a0 3e 7c e3 78 3d 7f 96 8d 3d 47 69 97 bd
       0.3136927 0.06076382 0.069134705 -0.07393127
000100 cd 75 9e 3d 2b 63 f8 3c 41 25 89 bd 44 fb 13 be
       0.077373125 0.030320724 -0.06696559 -0.14451319
000110 b0 9e f4 bd 87 7c 82 3e a0 e0 3d 3d 5b 4c 58 be
       -0.1194433 0.25485632 0.046356797 -0.21122877
000120 31 97 b4 3b b7 e9 ab 3c 59 81 8f be f5 15 2c bd
       0.0055111875 0.020985467 -0.28028372 -0.042013127
000130 61 51 b5 3d 88 f2 b4 be fe 66 b6 3c e9 ec 16 3e
       0.088534124 -0.35341287 0.022265907 0.14738812
000140 7f cd ba 3d c2 17 28 bd f5 ec 47 3e 71 a2 19 b8
       0.091212265 -0.041038282 0.19523986 -3.6629328e-05
000150 e8 eb cb 3c 1d db 9e be 4b 58 03 bd 19 de ff 3d
       0.024892762 -0.31026545 -0.032066625 0.12493534
000160 bf 6d 47 3c 22 3c a4 bb d0 4d ac bd 6b b4 90 3e
       0.012172162 -0.005012051 -0.08413279 0.28262648
000170 d7 26 4f be c6 9a 2f bd f1 1e 19 3e 2e 3d 57 3d
       -0.2022966 -0.042872213 0.1495321 0.05254858
000180 cc 9b 9e bc 6c d0 36 be f1 de 91 3e cc ad 7f 3d
       -0.0193614 -0.17852944 0.28490403 0.062421605
000190 59 72 2a bd a3 51 8d bc 04 65 9c 3e 81 be 89 3d
       -0.041612957 -0.017250841 0.3054582 0.06725789
0001a0 5e 69 06 be 7b 0d 14 3e 96 39 ab be 5a d7 fd 3c
       -0.13126132 0.14458267 -0.33442372 0.030986477
0001b0 9b 35 28 3e 3c 5c 18 3e 2c 4f 2e be a5 2b f3 bd
       0.16426699 0.14878935 -0.17022389 -0.11873559
0001c0 b3 2e 2a bb 3f 3b 3c bd 85 75 63 bc 77 9e 95 3e
       -0.0025967776 -0.04595494 -0.013882999 0.29222462
0001d0 1c cf 38 3e 0b 04 8b 3d 78 47 1c 3d 69 29 cc ba
       0.18047756 0.067878805 0.038154095 -0.0015576306
0001e0 d5 d3 99 3d 72 c2 72 3e 4d 5f 61 3e 43 93 81 3d
       0.07511107 0.23706988 0.2200901 0.06326916
0001f0 88 be 84 3e c5 6c 45 3e e5 9d 27 bd b8 32 00 3e
       0.25926614 0.19279774 -0.040922064 0.12519348
000200 57 7b b8 bd ed 15 e8 bd 4e b5 43 3c 6f a0 94 be
       -0.090079 -0.11332307 0.011945082 -0.2902865
000210 da bf 7e be 06 db 0e 3d 38 bd 53 3d ad c3 a0 3d
       -0.24877873 0.034876846 0.051694125 0.07849822
000220 ec c2 04 3e 6b 15 09 be 6c fe 69 3e e1 89 9f bc
       0.12964982 -0.13387077 0.2285096 -0.019474925
000230 3b 14 1a be 29 86 c6 bd c3 6b d7 3d 79 f1 b4 bd
       -0.1504678 -0.09693558 0.10518601 -0.0883512
000240 05 85 ab 3d c8 70 d2 bd d6 26 21 be 4b d2 5a bd
       0.08374981 -0.102754176 -0.15737471 -0.053423207
000250 91 67 14 bd 12 1a 34 be b3 6f 75 be b5 23 24 be
       -0.03623158 -0.1758807 -0.23968391 -0.16029246
000260 15 b8 ae 3c 78 76 d1 be bf 37 46 3e 48 6c f1 be
       0.021328012 -0.40910697 0.19357203 -0.47152925
000270 1d a8 df 3c bc e0 96 bc 8e 1c 89 3e 17 8d 0c be
       0.027301842 -0.018417709 0.26779598 -0.13725697
000280 7a 10 86 be ff 0b 07 3d c7 01 3b bd 96 46 d9 be
       -0.26184446 0.032970425 -0.045655992 -0.42436665
000290 6b b5 99 be d3 f0 3f be 27 08 f1 be 3d e0 55 3e
       -0.30021223 -0.18744211 -0.47076532 0.20886321
0002a0 25 5b 98 3e 25 aa 01 3a ff 06 0c bc 6e 49 8d 3e
       0.29757038 0.0004946313 -0.00854659 0.27595085
0002b0 b1 cd 99 3d 69 c8 26 be 6a 6d 11 3d 8a f6 35 3e
       0.07509936 -0.16287388 0.035504736 0.17769828
0002c0 3b f3 13 be a1 9d f4 3d 94 58 37 bd b9 36 4a bd
       -0.14448254 0.11944128 -0.04476221 -0.049368594
0002d0 d0 05 5a be 82 36 71 be ff 7a b1 3d 70 be 9a 3c
       -0.2129128 -0.2355595 0.08666038 0.018889636
0002e0 c4 e7 ca bc 04 ca 8c bd f0 10 cc bd 48 b1 67 3d
       -0.024768718 -0.06874469 -0.09964168 0.056565553
0002f0 07 e4 96 be c8 b2 a8 bd 7d 81 a5 3d d0 c9 14 be
       -0.29470846 -0.08237225 0.080813386 -0.1453011
000300 51 7e 33 be 1c 47 4e 3d 2d 5c 5d be ce fd 7f 3d
       -0.17528655 0.050360784 -0.21617194 0.062497906
000310 84 41 b5 3d ff 5a b4 3d 0f ca 86 3e f7 60 ab 3d
       0.08850387 0.08806419 0.26326033 0.08368104
000320 0b 3e 31 3e 8a ae 70 3d b2 3e 5b be 91 d7 96 3e
       0.17308824 0.058760203 -0.21410635 0.2946134
000330 26 e3 a3 3e d7 d7 31 be 2d cf a5 3d 6b b6 54 3e
       0.32009238 -0.17367493 0.08096156 0.20772712
000340 d9 c9 c8 be ac d8 84 3b 8d 82 b8 bc 21 5d a3 3e
       -0.39216498 0.0040541496 -0.022523189 0.3190699
000350 c0 a0 36 3e d5 7d cd 3e f9 54 96 3e ae 1c a6 be
       0.17834759 0.40135065 0.29361704 -0.32443756
000360 51 cf b9 bd 6e f1 62 3e 89 3b 0e 3d 4f ec 60 3e
       -0.090727456 0.2216241 0.034724746 0.21965145
000370 69 49 f4 3d 4f 9c 14 3e d3 ea a2 be 4b bf 7a 3d
       0.119280644 0.14512752 -0.31819782 0.061217587
000380 53 a1 22 3e 4d 7b 77 3b 36 8a 76 3c 64 48 16 bd
       0.15881853 0.0037762702 0.0150476005 -0.03669013
000390 ed 88 75 3e ee 00 87 be f2 0b 99 3e 89 dc 8e be
       0.23978014 -0.26367897 0.29891926 -0.2790263
0003a0 4b 2e 96 bd 66 f8 6e 3d 45 9e b4 bc 71 fb a1 3e
       -0.073330484 0.05834236 -0.022048125 0.31637147
0003b0 f2 30 3f bd 19 72 ca 3d ee 5f ec bd 25 82 4c 3d
       -0.046677537 0.09885044 -0.11541735 0.049928803
0003c0 e9 be c9 bd de 86 45 bd aa 40 89 3d d8 83 18 bd
       -0.09850866 -0.048224322 0.06701787 -0.03723511
0003d0 77 46 3a 3e 65 1f c3 bd 2d 09 83 bd 44 49 bb bd
       0.18190943 -0.095274724 -0.063982345 -0.09144834
0003e0 c0 5c 1f 3e fd 25 d9 bd 00 bc 9d bc af 9e c3 be
       0.15562725 -0.10602949 -0.019254684 -0.38207003
0003f0 cb e3 da be a8 2b 9d 3d b6 40 0c be 09 cf 32 bd
       -0.42751917 0.076743424 -0.1369656 -0.043654475

9.bias f4 [84]
000000 3f 6a 21 39 63 ab b7 bd 42 4e eb bd eb 41 e1 bd
       0.00015393736 -0.08968236 -0.11489536 -0.10998901
000010 cb 80 9a 3e cc 22 08 3e cd 5d 19 be f6 f8 15 be
       0.30176386 0.13294524 -0.14977188 -0.14645752
000020 2e bd 4b be 07 39 7a bd 0e ba 9d 3e 9a 80 cc bd
       -0.19896385 -0.06108954 0.3080601 -0.09985466
000030 ac 2f f6 3d cd 4f 62 3d c4 02 74 3e 86 e9 db 3d
       0.120208114 0.055251885 0.2382918 0.107379004
000040 24 3f 0b 3e e8 5c c4 bd 78 a2 a1 bd db 7a 5b 3e
       0.13598305 -0.09588033 -0.078923166 0.21433584
000050 64 d0 43 be 53 42 0a 3e 68 b7 ea 3c e1 3b 25 be
       -0.19122463 0.13501863 0.028651908 -0.16136123
000060 b7 be 06 be fa d0 00 bd 49 1c a7 3e bc 6f 12 be
       -0.1315869 -0.031449296 0.32638767 -0.14300436
000070 05 91 bf bd dc 8c 47 3e 38 14 02 be 72 4b e8 3d
       -0.09353832 0.19487327 -0.12703025 0.11342515
000080 2d ef bb 3e 9e 64 8a bd 1a 3f f5 bd 9c 31 02 be
       0.36705914 -0.067574725 -0.11974926 -0.12714237
000090 15 1e 0a 3e d8 23 94 bd fe 75 02 bd af 9f 30 3e
       0.13488038 -0.07233399 -0.031850807 0.17248414
0000a0 0b 68 93 bd 38 5f 73 3e 96 d5 5a 3d 36 8e 61 bd
       -0.07197579 0.23766792 0.053426348 -0.055067264
0000b0 84 4d cd bc f2 86 45 3d a3 3a fd 3d 17 47 06 be
       -0.025061376 0.048224397 0.123647 -0.13113056
0000c0 2c 50 aa bd f6 8c 69 3e 60 ea 48 3d 23 9c 7d 3e
       -0.08316073 0.22807679 0.049051642 0.24766593
0000d0 dd 25 93 be 1c f5 3e bd d9 3b 21 bd 75 f1 38 bd
       -0.28739825 -0.046620473 -0.039363716 -0.045152146
0000e0 92 7b 5f 3e d4 8d d5 3d 9b e9 35 bd 46 0d 5c be
       0.21824482 0.10427442 -0.044412237 -0.21489438
0000f0 05 11 0f 3e db b7 04 3e ab 0d 24 3e e0 3b b9 3e
       0.13971336 0.1296076 0.16020839 0.36178493
000100 d5 c4 2a 3d d1 60 1b be f9 3d 7d 3d f0 77 e1 bd
       0.04169162 -0.15173651 0.06182668 -0.110092044
000110 a6 6d 94 bc da f3 d9 3d 8d dc 02 3e c5 d1 b3 3c
       -0.01811869 0.10642214 0.12779446 0.021950612
000120 d5 8d 88 3e af 84 2a be 54 1b be bd c8 11 b5 bd
       0.2667071 -0.16652177 -0.09282556 -0.08841282
000130 0f 7c 0d 3e bb 07 7c 3e f3 b4 a6 3e 44 34 c5 bc
       0.13816856 0.24612324 0.32559928 -0.024072774
000140 40 22 e5 3b 93 cd 4a be 79 46 74 bd 65 09 69 3e
       0.0069926083 -0.19804983 -0.05963752 0.2275749

11.weight f4 [10, 84]
000000 f8 4c 16 be 81 9d 88 3e 40 f3 c0 3e 44 cc 08 bf
       -0.14677799 0.26682666 0.37685585 -0.53436685
000010 8f 5c aa 3d b7 a3 44 bd 59 4b 3d 3e 13 17 fc be
       0.083184354 -0.048007693 0.18485774 -0.49236354
000020 7f 28 b5 3e 50 8a 25 3e 82 7c 41 bd 93 41 8e 38
       0.3538246 0.16166043 -0.04723788 6.783302e-05
000030 69 bf ca 3d 12 e5 86 3e a8 a7 29 bf 24 1c 6e be
       0.0989979 0.26346642 -0.6627145 -0.23252922
000040 b7 e3 3f be 53 49 0d be 58 c9 a0 bd 54 0b e0 bd
       -0.1873921 -0.13797502 -0.07850903 -0.10939661
000050 6c 5e df bd 48 0f a2 be c1 00 27 3e 35 b7 36 be
       -0.109066814 -0.31652284 0.16308881 -0.17843325
000060 8f ba 2a 3e 9e 91 8e 3e d2 bd 2d 3c b4 c4 1c be
       0.16672729 0.27845472 0.010604339 -0.15309411
000070 dc 79 59 bd cd 26 cf be ad c6 2e 3e c0 47 71 be
       -0.05309473 -0.4045929 0.17067976 -0.23562527
000080 6e bb 4a be 3d 31 5b 3c 78 a5 44 be fd a9 5e bc
       -0.19798061 0.013378439 -0.19203746 -0.013590333
000090 31 3c 2c 3e af d7 c1 3d 79 96 8f 3e 31 84 a7 3d
       0.16819836 0.094649665 0.2804449 0.081795104
0000a0 42 13 98 be a8 e2 f9 be f0 4d 28 be 23 2b c2 3d
       -0.29702193 -0.48805737 -0.16435981 0.09480884
0000b0 9a 55 ba bd 7e 48 da bd 0b 9d 75 3e 3c 75 0d bf
       -0.090983585 -0.10658358 0.23985688 -0.5525701
0000c0 6c 08 a8 bd cc 9e 92 be c3 d1 19 be a9 51 0a 3b
       -0.08204731 -0.28636777 -0.15021424 0.0021105802
0000d0 f9 03 f7 bc 16 96 ad bd da 67 b2 be f9 e0 b0 be
       -0.030153261 -0.08475892 -0.34844857 -0.3454664
0000e0 bf 2c 87 3d 73 43 0b 3e 2b b5 17 3d 94 2f f7 3d
       0.066003315 0.13599949 0.03703801 0.12069622
0000f0 8d d9 90 be 6a 92 17 3e bd 28 de 3d 1a d7 c3 be
       -0.28290978 0.14801946 0.10847614 -0.38250047
000100 6a ca 14 bf 1c 40 03 3d a2 7c 65 be de 20 18 3e
       -0.5812136 0.03204356 -0.22410825 0.14856288
000110 39 0c 7b be e5 f4 f5 be b3 f3 ef bd d0 87 7a 3e
       -0.24516381 -0.48038402 -0.11716404 0.24465871
000120 0a 12 b1 be 39 00 59 bd 7c 84 31 3e f6 bb ce 3b
       -0.34584075 -0.052978728 0.17335695 0.006309028
000130 9f 63 79 3d 89 8b 46 3e 9b 59 05 3e 57 ea 80 be
       0.06088602 0.19389166 0.13022463 -0.25178787
000140 7d fe 20 be 8b 7f 76 3e ae e0 49 be 77 13 1c 3e
       -0.1572208 0.24072091 -0.19714615 0.152418
000150 8f e7 39 be 2f b9 36 3d 99 13 0f bf 3d a1 85 3e
       -0.18154739 0.0446102 -0.5588928 0.26099578
000160 8d ce 49 bd 3f 25 54 3e 97 7d 03 3e 83 6a 32 be
       -0.049269248 0.20717333 0.12840877 -0.17423443
000170 4a de b6 3e cf d4 80 bc 8d bc c9 3c ab 74 3a 3d
       0.35716468 -0.015726475 0.02462604 0.04552142
000180 9b 6e 91 be 4d 52 b1 be 33 51 f9 3d e2 97 5e 3c
       -0.28404698 -0.34633103 0.12173691 0.013586016
000190 f8 a7 60 3b e8 ec 0a 3d 9d 15 18 bf 63 21 50 3d
       0.0034279805 0.033917338 -0.5940798 0.05081309
0001a0 71 54 92 3d 86 cc b6 3d a1 bc 64 be 2a b6 5a be
       0.07145012 0.089257285 -0.22337581 -0.21358553
0001b0 f2 10 4e bf a8 38 7b 3d 36 71 1c bf 49 63 84 3d
       -0.80494606 0.06133333 -0.61110246 0.0646425
0001c0 f6 33 25 be 18 13 a3 3d c3 43 d3 be 83 e9 00 be
       -0.16133103 0.07962626 -0.41262636 -0.12589078
0001d0 8d f0 1d be 6d e8 66 be 62 20 54 3e 73 90 ae 3d
       -0.15423794 -0.22549601 0.20715478 0.08523645
0001e0 0c b6 2c 3d f3 4a 87 bc 8a 21 9a be 97 d9 87 3d
       0.0421658 -0.01651523 -0.30103713 0.06633299
0001f0 3f 58 58 3e fa 15 47 3d 31 85 44 be 51 34 01 3b
       0.21127413 0.048604943 -0.19191433 0.001971502
000200 9e e9 6b 3e b9 62 ae 3d 66 bc 32 be e8 39 6f 3e
       0.23038337 0.085149236 -0.17454681 0.23361933
000210 5b eb a2 bc 1c 56 33 bd 7a 73 b4 3d dc ff 26 bf
       -0.019887617 -0.043783292 0.08811088 -0.6523416
000220 c9 64 8b 3e 93 ca 6d 3c ce cf 59 be 11 2d 3d bf
       0.2722533 0.0145136295 -0.21270677 -0.7389689
000230 1f a7 db be a6 60 05 bf be 79 7b bd 96 01 cd bd
       -0.4290094 -0.521006 -0.0613954 -0.10010068
000240 f3 32 46 3e 04 dc 8c 3d 60 94 4b be 9a 9e f7 be
       0.19355373 0.06877902 -0.1988082 -0.4836319
000250 db 4d f9 3d 51 99 f4 bd 62 05 1a 3e db 82 be bd
       0.12173053 -0.11943305 0.15041116 -0.093023024
000260 79 23 44 3d 41 c3 23 be b4 57 a9 be 10 56 54 3e
       0.04788539 -0.15992452 -0.33074725 0.20735955
000270 35 86 77 be 02 3c 6f 3e 69 38 4c 3e f7 b3 9f 3c
       -0.2417229 0.23362735 0.19943394 0.019494994
000280 aa da d6 3d 33 05 05 be 35 ee 7e be fa ea 8b be
       0.104909256 -0.12990265 -0.24895556 -0.2732771
000290 9b 65 9f be dd 39 e7 3c 92 b1 ba be d8 a0 cc 3b
       -0.31132206 0.028225834 -0.364636 0.00624476
0002a0 93 21 3e bd 23 65 1b be 86 e1 d8 3c 54 60 49 be
       -0.046418738 -0.151753 0.026474725 -0.19665653
0002b0 fb dd 04 bd 4f de 23 bf bb 67 ee 3d eb f3 e1 bd
       -0.03243826 -0.6401109 0.11640879 -0.11032852
0002c0 49 8a 23 bf c8 b0 9a 3d 6e 5d b0 be 7f bb b5 3c
       -0.6388288 0.075532496 -0.3444628 0.022184132
0002d0 e7 f9 96 be ab 4a 3b 3e 29 ab 84 3e 6c a4 37 3d
       -0.29487535 0.18290202 0.25911835 0.04483454
0002e0 5b ee 06 bf 1a d4 65 bd c5 83 5b be 94 49 81 3d
       -0.5270745 -0.05611048 -0.21436985 0.06312862
0002f0 21 6c 12 be 31 04 40 3e 30 b0 09 3e c7 b8 9a be
       -0.1429906 0.18751599 0.13446116 -0.302191
000300 03 97 12 bf 76 93 27 3e 96 89 a6 bd 21 ad 5d ba
       -0.57261676 0.16364846 -0.08131711 -0.0008456279
000310 5a 7d 92 bd 10 da 4f bd b3 f3 52 be 47 2f 16 3e
       -0.07152815 -0.05074507 -0.20600776 0.14666472
000320 cc 36 44 3e 77 52 1b be ff 91 23 be 67 03 d3 bb
       0.19161528 -0.15168177 -0.15973662 -0.0064396146
000330 e4 0c e6 3c 14 b1 90 bd b4 0d bf 3e 0a c0 c7 bd
       0.028082319 -0.07065025 0.37315142 -0.097534254
000340 4f c4 3d bf 80 b8 f7 be 16 bb e1 be 93 2b fa bd
       -0.7412767 -0.4838295 -0.44088048 -0.122153424
000350 8e ca 8e 3e fc 8e b1 be 6e 4a 45 be 1d 57 82 3e
       0.27888912 -0.346794 -0.19266674 0.25457087
000360 f5 37 4d bd 7b c2 32 3c 4b 9d 3a be 8c a4 81 be
       -0.050102193 0.010910626 -0.18224065 -0.25320852
000370 e1 c3 88 be 58 aa 2e 3c 3f da 15 bd f1 ee f4 3d
       -0.26711944 0.01066073 -0.03658509 0.11959637
000380 3d 7b e6 be 0f f9 12 be c8 d7 00 be a4 c4 44 3c
       -0.45015898 -0.14352821 -0.12582314 0.012009773
000390 93 68 20 be 3f 43 da 3d 4e f8 23 3e 55 18 72 3e
       -0.15664892 0.106573574 0.1601269 0.23642094
0003a0 02 8f a3 3d cf e7 e2 bd 2f f9 c7 be f9 01 23 3e
       0.07986261 -0.1107937 -0.390573 0.15918721
0003b0 0f 33 b1 bd f5 a4 d9 3d f5 c4 77 bd 91 96 3a be
       -0.08652317 0.10627166 -0.060490567 -0.18221499
0003c0 72 06 d3 be cb 98 d9 be fc 79 d3 bc 64 c8 83 3e
       -0.41215855 -0.42499384 -0.025815003 0.25738823
0003d0 0c 67 99 3d 30 a9 43 bd e1 60 02 3e ef 9c 86 3d
       0.07490358 -0.04776877 0.12732269 0.065729015
0003e0 2c 9d 25 3d dc 70 04 3e b7 72 16 3d 4c 7b 08 3e
       0.040433094 0.12933677 0.036730494 0.13328284
0003f0 c4 e3 f2 3d 14 3d 32 3c fa 59 17 bd b6 e5 d2 3d
       0.11859849 0.01087882 -0.036951043 0.1029772

11.bias f4 [10]
000000 c3 6a 13 bd bc 00 0c be 76 61 97 bd a4 1c 81 bd
       -0.035990488 -0.13672155 -0.07391636 -0.06304291
000010 88 a6 2b 3d f9 ad ad 3d 6d db f4 bd 01 da 2a be
       0.041906863 0.08480448 -0.11955915 -0.16684724
000020 98 20 a0 3e 9e 85 cd bc
       0.31274867 -0.025088128
