lenet.pth (torch, 249799 bytes, 10 tensors)

0.weight f4 [6, 1, 5, 5]
000000 41 8d c8 bd 3e 18 42 be af cd c9 3c 98 c9 21 bd
       -0.09792567 -0.1895456 0.02463421 -0.039498895
000010 b0 7f b5 be 6d 68 0a 3e 41 9e 1e 3d b6 32 0e 3d
       -0.3544898 0.13516398 0.03872514 0.03471633
000020 54 50 7e 3e 7b 6f 6c bd 17 7d 05 3e 0a d5 be 3d
       0.2483533 -0.057723504 0.13035999 0.09317978
000030 80 33 f3 3e dc a8 0e 3f 6b 18 52 3e 5e ab b4 be
       0.4750023 0.5572641 0.20517127 -0.35286993
000040 7b 2d 33 be be 79 c7 3e c2 6d f9 3e 9d cf 25 3e
       -0.17497818 0.3896007 0.4871655 0.1619248
000050 07 3a 19 bf 0d 86 fa be df 23 99 3b 2f 54 69 bd
       -0.5985417 -0.48930398 0.0046734656 -0.05696505
000060 89 e1 19 bc 3a 9e 15 bc 69 8e 74 3e 99 f2 ca 3d
       -0.009392151 -0.009131962 0.2388245 0.09909553
000070 ed 46 5e 3d 2d 38 95 be 5e 2a a7 be e2 a2 37 be
       0.05426686 -0.2914442 -0.3264951 -0.17933229
000080 43 e5 23 3e 48 d3 0e 3e 28 70 c0 be 5a 6c 2c bf
       0.16005425 0.13947785 -0.37585568 -0.6735283
000090 a7 be 35 bd 7d 8f 63 3e 81 5f 05 3f 64 9b 95 be
       -0.044371273 0.22222705 0.5209885 -0.29220116
0000a0 1b d9 9b be 48 75 ec 3e cc 5a e7 3e 25 fd 11 3f
       -0.30439076 0.46183228 0.4518646 0.5702689
0000b0 0f 58 f4 bd c6 53 e4 bd 45 1d d8 3d 0a 79 35 3e
       -0.11930858 -0.11148791 0.10552458 0.17721954
0000c0 23 37 07 3e 6c 59 0f be 7c 43 66 be b9 f0 cd bd
       0.13204627 -0.13998955 -0.22486681 -0.1005568
0000d0 b6 f3 8d bd 57 bb c9 bd 0d cb 2f be 3c d0 13 bf
       -0.0693125 -0.09850185 -0.17167301 -0.57739615
0000e0 a2 a4 a7 be c0 05 2e be f9 e3 1e be c9 2c 89 be
       -0.32742792 -0.16994381 -0.15516652 -0.2679198
0000f0 1c a6 b6 be 5b a6 d0 3e 88 4a f9 3e c9 06 09 3e
       -0.35673606 0.4075192 0.48689675 0.13381495
000100 0c f4 37 3e 1d ef f6 3e e6 d0 44 3f 9c 33 07 3f
       0.1796419 0.48229304 0.76881254 0.52813125
000110 2f b8 c9 3d c5 1c 3f be 59 07 d1 bc 7a 79 95 3e
       0.09849583 -0.18663318 -0.025516199 0.29194242
000120 8f f8 de 3c b8 95 26 bd 2c 82 3e 3e e7 1d 48 3d
       0.027218131 -0.040670127 0.18604344 0.048856642
000130 f5 68 db bd 45 15 36 be 24 66 85 be 8a da 80 be
       -0.10713378 -0.17781551 -0.2605449 -0.25166732
000140 db a3 b8 bd 6e d6 06 3e 94 20 fb 3c a7 66 77 bd
       -0.09015628 0.13167736 0.030655183 -0.06040063
000150 b5 0b 5a be d8 2b 27 be c7 94 48 3e 65 66 13 3e
       -0.21293528 -0.16325319 0.19588004 0.14394529
000160 1c 80 a9 3e bc 57 13 3e 14 98 40 be b1 d7 c2 bc
       0.33105552 0.14388937 -0.18808013 -0.02378449
000170 62 a2 fa 3e 80 f4 2a 3f f5 60 2e 3e 79 6a 5b be
       0.48952013 0.6677933 0.17029174 -0.21427335
000180 e6 c0 1d 3c a8 48 91 3e c5 52 62 3e 8d 16 5b bd
       0.00962851 0.28375745 0.22101887 -0.053488303
000190 7d 5b 95 be df f5 dc bc 0d 5c 75 bc bf 9b f9 3d
       -0.29171363 -0.02697271 -0.01497556 0.12187909
0001a0 ab 84 85 3e 6b 52 22 bf fe 59 62 be 63 fa 69 3e
       0.2607778 -0.6340701 -0.22104642 0.22849421
0001b0 e6 c4 9a 3e 1b 07 fe 3d f9 98 cf be 84 17 00 3f
       0.30228347 0.12403699 -0.40546396 0.5003588
0001c0 2a 3a 0a 3f e5 67 e2 3e e5 61 41 3e d8 29 8b 3e
       0.53995 0.4421989 0.18885 0.27180362
0001d0 6f b8 af 3e 8d a0 9f 3e 45 90 e0 3d f7 37 aa be
       0.343204 0.31177178 0.10965017 -0.33245823
0001e0 d0 d1 a7 3d cf e2 e1 bd 04 ce 4e be a7 e9 11 bf
       0.081943154 -0.110295884 -0.20195776 -0.5699715
0001f0 f9 35 e7 be 00 70 81 3e 2a 9b 5d bd 41 57 b4 be
       -0.45158365 0.25280762 -0.054103054 -0.3522282
000200 76 fb 25 bf 27 8b 62 be 4a 61 18 3f 39 0c ec bc
       -0.64836824 -0.22123395 0.5952345 -0.028814422
000210 02 d0 9f bf fb 55 bc be 64 c6 91 3e 19 98 24 3f
       -1.2485354 -0.36784348 0.28471673 0.6429458
000220 1f ad d4 be eb 12 da bf 00 d3 0e 3e 04 87 05 3f
       -0.4153833 -1.7037023 0.13947678 0.5215914
000230 99 23 cd 3e 8b 4e 49 bf 55 b9 43 bf a9 39 1b 3e
       0.4006622 -0.7863547 -0.7645467 0.15158714
000240 5d 84 1d 3f 6e 6a 19 3e 52 91 e8 be a4 3c 4c be
       0.61530095 0.14982006 -0.4542337 -0.19945008
000250 1c d3 42 3e 0c 28 63 3e
       0.19025844 0.22183245

0.bias f4 [6]
000000 b2 a0 91 bb ea 51 24 be 67 53 31 3e 2e f5 d3 3d
       -0.004444205 -0.16046873 0.17316972 0.10349499
000010 d6 43 11 be 45 aa d7 3d
       -0.14186034 0.10530523

3.weight f4 [16, 6, 5, 5]
000000 0a 74 53 be 78 7f dc 3d d5 d2 d6 3d a3 8a 1f be
       -0.20649734 0.107665 0.10489432 -0.1558023
000010 7f bd fe bd 33 4f 2a be 3b e7 71 3e be a1 a2 3e
       -0.12438487 -0.16631775 0.23623364 0.31764024
000020 83 c8 3d bd e8 84 78 be b1 ba ae be e3 bb 0c 3e
       -0.0463338 -0.2426945 -0.3412681 0.13743548
000030 38 d5 cb 3e dd 8c e3 bd d9 ce d2 be 68 2e df be
       0.3981111 -0.11110852 -0.41173437 -0.43590093
000040 3c d5 80 3d 96 30 d8 3e 19 3a 96 3d 7b 0a a7 be
       0.06290671 0.42224568 0.073353 -0.32625183
000050 29 92 66 be 1c c1 13 be 2e ce f4 3d cd fc 8e bd
       -0.22516693 -0.14429134 0.11953388 -0.06981812
000060 d2 18 82 be e3 65 79 be 9c 7b 2e 3e d5 2b 37 3d
       -0.2540956 -0.24355273 0.1703934 0.044719536
000070 48 ec 63 bc a7 f1 4a be dd 31 e9 be b3 be b4 3d
       -0.013911314 -0.19818746 -0.45545855 0.088254355
000080 12 22 a0 3e b7 6d 3c 3e 15 32 fb be 01 65 ba be
       0.31275994 0.18401228 -0.49061647 -0.36405185
000090 ea 65 8f bd 33 a6 ca 3e f1 27 de 3d 69 31 19 bf
       -0.070018604 0.39579925 0.10847462 -0.5984102
0000a0 44 c1 ce be a6 ae a6 bd 16 22 ba 3e 97 68 66 3e
       -0.40381825 -0.0813878 0.3635413 0.22500835
0000b0 54 7c 98 be 87 41 10 be 3f 3b 4d bd 18 9c 89 3e
       -0.29782355 -0.14087497 -0.05010533 0.26876903
0000c0 df 32 06 3e 8a fc 1a be a7 c2 9f be f0 14 dc bc
       0.13105343 -0.15135399 -0.31203195 -0.026865453
0000d0 80 95 9f bb 68 8b 51 3a 70 9e d0 bc 91 17 3e be
       -0.0048701167 0.00079934904 -0.025466174 -0.18563677
0000e0 96 51 a4 bc 42 25 20 3e 7d d8 6c 3e 0a 94 92 be
       -0.020058434 0.15639213 0.23129459 -0.2862857
0000f0 fc 68 81 bc 14 37 09 be 77 84 a6 3d b3 b7 5a 3e
       -0.01579713 -0.13399917 0.081307344 0.21359138
000100 b3 95 dc be 4a 28 ad bc ba 0d c8 bd 4e cc 12 3c
       -0.4308296 -0.021137375 -0.09768243 0.008959843
000110 65 96 99 3d 4b af 8c be ce ef 09 bc 5f 51 99 bc
       0.074993886 -0.27477488 -0.00841899 -0.018715559
000120 7f 83 96 3c 20 94 5a bc 11 3c 98 bd 00 ae 92 be
       0.01837325 -0.01334098 -0.07433332 -0.28648376
000130 86 18 e3 3d b3 66 e0 3d e5 5e b5 bc 7f b6 15 be
       0.11088662 0.10957088 -0.022139976 -0.14620398
000140 ad c9 b8 be b4 5a d5 3d de 99 7e 3e ff bb d0 bc
       -0.36091366 0.10417691 0.24863383 -0.025480269
000150 0a 01 a9 be 99 0f bf be e8 ee ab 3d 80 17 c8 3e
       -0.33008605 -0.37316588 0.08395177 0.3908043
000160 be 88 9f bd 32 72 a4 be 08 b9 af be 5e bb a0 bd
       -0.077897534 -0.32118374 -0.34320855 -0.078482375
000170 c0 26 17 3e eb d2 23 3d df 21 54 be 61 4a 40 bd
       0.14760876 0.03999607 -0.20716046 -0.046945933
000180 fe c1 27 3d cb c3 a6 3d f0 1c ed 3d 94 a4 ca bc
       0.04095649 0.08142813 0.11577785 -0.02473668
000190 71 54 b4 bd 6f 86 ea 3d d8 95 e0 bd 13 84 a3 bc
       -0.088051684 0.114514224 -0.109660804 -0.019960439
0001a0 6a a1 4a 3d 03 c3 61 be 7f 70 52 be 16 41 7b bc
       0.049470343 -0.22047047 -0.20550726 -0.015335342
0001b0 8b f6 6a 3e 9d ac cd bd 38 6a c0 be c7 24 88 be
       0.22945611 -0.10042689 -0.37581038 -0.2659056
0001c0 ff 9b 10 3e b1 66 ef 3d 9d 1e fe be d9 ce d3 be
       0.14122008 0.11689509 -0.4963273 -0.4136875
0001d0 e3 af e4 bc 36 50 22 3e 3f 75 10 3a 0e aa 44 be
       -0.0279159 0.1585091 0.0005510635 -0.19205496
0001e0 9d d1 b4 be 69 37 9b bd 33 38 b9 3d 19 c9 64 3c
       -0.35316172 -0.07578928 0.09043922 0.013963961
0001f0 e5 f9 1b be 65 ab ea bb 43 19 29 be 13 f3 7c bc
       -0.15232046 -0.007161545 -0.16513543 -0.015438813
000200 87 d4 75 bd 9d 3d 9a be f5 78 06 3b 36 86 5e bd
       -0.060017135 -0.30125132 0.0020518873 -0.054327212
000210 8f d6 85 3e dd 1c b1 3d 91 e6 34 3e 6a 95 40 3e
       0.26140258 0.08648083 0.17666079 0.18806997
000220 9d 5a ac 3d ae 1c 01 3f db 8f ca 3e e1 33 1c 3f
       0.084157206 0.50434387 0.39562878 0.6101666
000230 66 bc 60 3e 46 f7 6b 3d ee 61 a7 3e 5e 80 19 3f
       0.21946868 0.057608865 0.32691902 0.599615
000240 dc 26 03 3f fd ab 22 3e 33 31 e6 3d ca 41 f8 3d
       0.5123117 0.15885921 0.11239853 0.12121923
000250 86 46 35 3e 67 ce 15 3e e8 d8 37 3e ee 57 16 be
       0.17702684 0.14629517 0.17953837 -0.1468198
000260 f4 18 92 be 37 24 51 be 06 e3 9e 3d cc 6d 16 bc
       -0.28534663 -0.20423971 0.07758145 -0.009181451
000270 c2 7f 8e be 26 a4 0d bf e7 63 87 be 73 db 18 3e
       -0.27831846 -0.55328596 -0.26443407 0.14927463
000280 7c f3 e4 bd 74 ba fa be a5 81 c8 be b9 c2 59 be
       -0.111792535 -0.48970377 -0.3916141 -0.21265687
000290 a0 77 16 3e 1b b8 19 bd 51 28 db be f7 71 99 be
       0.14694071 -0.037529092 -0.42804196 -0.2996976
0002a0 07 7d 97 3d 32 d6 ea bc 3a ce bc 3d a0 f2 61 be
       0.07396894 -0.02866659 0.09219022 -0.2206521
0002b0 24 c1 63 bc fb f8 45 3b 5b ad 13 3c b0 1d 40 3e
       -0.013901029 0.0030208218 0.009013499 0.18761325
0002c0 5d 2d 4e 3d ef 3b cc be 85 42 ac ba d0 a1 49 bd
       0.05033623 -0.39889476 -0.0013142383 -0.049226582
0002d0 20 37 f1 3d 77 5e 8f bd 88 b0 a3 be ed 96 21 bf
       0.117780924 -0.070004396 -0.3197062 -0.6312092
0002e0 8a 0b 7a bd 93 43 07 3e 2e c6 af be 43 53 cd bd
       -0.06104616 0.13209371 -0.34330887 -0.100256465
0002f0 52 1e d8 be d8 0d 36 3e eb 55 d6 3c e4 fb a3 be
       -0.42210633 0.17778718 0.026164016 -0.32028115
000300 8c f1 02 be cc e4 e2 bd da ba 0b 3e 1c 92 99 3e
       -0.12787455 -0.11078796 0.13645497 0.29994285
000310 81 dd 3a bd 8b d5 cb 3d a9 d1 65 3d 90 e5 17 3e
       -0.0456214 0.099528395 0.05610815 0.14833665
000320 96 13 4c 3c 08 74 3a 3d 13 8e 01 bf 0b 7a e7 be
       0.0124558415 0.045520812 -0.50607413 -0.452103
000330 c2 6a 8f be 80 04 9d 3d 38 f0 07 be d2 de e8 be
       -0.28011137 0.07666874 -0.1327523 -0.45482498
000340 5d 38 c9 be f7 6d 7c be 14 13 6f 3d ee 83 b9 be
       -0.39300814 -0.24651323 0.058367804 -0.36233467
000350 cc aa ad be f4 39 85 be a8 38 28 3c 45 b1 a2 bd
       -0.3391937 -0.26020777 0.010267414 -0.07943968
000360 1f 21 88 be 02 b7 64 be 13 89 81 bd 98 06 50 3e
       -0.2658777 -0.22335437 -0.06324973 0.20315015
000370 67 48 81 3e 35 66 38 3e 69 eb ab 3d 70 05 16 3e
       0.2525055 0.18007739 0.0839451 0.14650512
000380 c8 98 f4 3d d2 47 08 39 76 44 91 bd a6 2e d8 be
       0.11943203 0.00012996726 -0.07093136 -0.4222309
000390 cf e2 a0 be 0d 92 9e bd ef f4 e4 bd e8 45 3e be
       -0.3142304 -0.07742701 -0.1117953 -0.18581355
0003a0 7b 99 e4 be 48 57 fb be d6 ae 72 3c 0f a9 59 be
       -0.44648346 -0.49090028 0.014812192 -0.21255897
0003b0 2d c2 97 be 31 dd e5 be db 5a 26 be b2 aa 2c 3e
       -0.29640332 -0.44895318 -0.16245596 0.1686199
0003c0 d7 77 23 3c 50 5b 96 be 30 c9 03 be 2c 37 e4 3d
       0.0099773025 -0.2936654 -0.12869716 0.11143336
0003d0 00 2f 6e 3d 2c c3 99 3e 7b d8 43 bd 77 ba dc bc
       0.05815029 0.30031717 -0.047813874 -0.026944382
0003e0 51 69 cd 3d 39 c1 29 be 0b ac 0c 3e 96 42 67 3e
       0.10029853 -0.16577615 0.13737504 0.22583994
0003f0 bb 4b a3 be 19 51 68 be d6 a1 5f be 14 12 6d 3e
       -0.31893715 -0.22687186 -0.2183908 0.23151428

3.bias f4 [16]
000000 ff d0 ab bd 1a a3 61 bd b3 14 30 3e c0 52 6e 3e
       -0.08389472 -0.055087186 0.17195396 0.23273754
000010 5d 49 3f bd 21 26 1a 3e 00 92 ce 3d fa 16 f4 bd
       -0.046700824 0.15053608 0.10086441 -0.11918445
000020 8d 27 d8 bd f5 ce 80 bd aa ab ae bd 8d f6 5b bd
       -0.10554419 -0.06289474 -0.08528836 -0.053701926
000030 12 53 52 be de b5 22 3e 46 d9 81 bd f9 56 69 be
       -0.20539501 0.1588969 -0.0634027 -0.22787084

7.weight f4 [120, 400]
000000 91 14 a5 bd 53 ae 00 be ae c2 0d bd 34 2d a2 3c
       -0.08060563 -0.125665 -0.03460949 0.019796945
000010 da 38 18 bd 96 d0 99 bd ca 1e 90 bd f1 16 ea bc
       -0.037163593 -0.07510488 -0.070371225 -0.028575392
000020 32 8f a7 3c 1f e3 94 3d 22 42 7b be b9 d5 75 be
       0.020454023 0.072698824 -0.24536946 -0.2400731
000030 f3 e0 68 bc e1 34 8a bc 51 59 c1 be 21 ca 22 be
       -0.014213788 -0.016870918 -0.37763456 -0.15897419
000040 2f 48 8e bb 40 8d 14 3e d3 d6 ed be 2e 5d ce be
       -0.004342101 0.14507008 -0.4645296 -0.40305465
000050 59 ff 07 be a3 cf fb bd 3b e1 d1 be 5d 5b f1 bd
       -0.13281001 -0.12295463 -0.4099215 -0.11785004
000060 02 00 df bd 6c be a2 3a 4a ba c1 3c 15 5d 1a be
       -0.10888673 0.0012416369 0.0236484 -0.1507457
000070 5d f0 5a 3e 2f 16 e4 3e ac 1a 01 bd 1f 18 a8 bc
       0.21380754 0.44548175 -0.031519577 -0.020519314
000080 91 56 54 3d 62 c4 74 3e 24 cc 7e 3c 87 dd 37 bd
       0.05184037 0.23903039 0.015551601 -0.044889
000090 fa 61 b4 3d 01 04 75 be 91 77 f4 3e 78 25 24 3d
       0.0880775 -0.23927309 0.47747472 0.040074795
0000a0 ed 1a 24 3e 50 07 75 3e b6 d9 91 be 84 3e 67 3e
       0.16025896 0.23928571 -0.28486413 0.22582442
0000b0 e8 50 7a 3d 8c 8f 15 bd 86 33 2f 3e a5 3f fc bd
       0.061112314 -0.03651385 0.17109498 -0.12316827
0000c0 21 a0 e4 be 21 48 7f be 28 14 58 3e e9 99 84 3c
       -0.4465342 -0.24929859 0.21101439 0.016186671
0000d0 72 fd 2c 3e fa b5 ac 3e 1f 94 0f be d5 90 69 3e
       0.16893557 0.33732587 -0.14021347 0.22809155
0000e0 69 64 d8 3d e6 39 76 3e 83 6e e4 bd 5f 7d 10 be
       0.10566027 0.24045524 -0.11153891 -0.14110325
0000f0 00 3c 63 3e 7a f4 ae bd 93 7b 59 be b1 cf ce be
       0.22190857 -0.08542724 -0.21238546 -0.4039283
000100 d3 ae 90 be 50 ad 15 3e 07 31 1d 3e cb 0d d6 3d
       -0.2825838 0.14616895 0.15350734 0.104518496
000110 64 61 91 bd fb 6c 9e bd 70 02 ee 3d 38 62 09 3e
       -0.07098654 -0.0773563 0.11621559 0.13416374
000120 c2 84 eb 3d 1f c7 3e 3b ff 4c 4a be cf cb 24 be
       0.11499931 0.0029110385 -0.19755934 -0.16093372
000130 8d dd f9 bd 40 f4 d3 bc d2 49 e1 bd b8 1f 60 be
       -0.122004606 -0.025873303 -0.11000408 -0.218871
000140 c7 5d 5e 3e 39 ec 92 3e 7d 49 5d 3e 63 dc 64 3e
       0.2171546 0.2869585 0.21610065 0.22349696
000150 bc 28 7c be ed ab 80 3e e5 81 68 3e 82 14 64 3e
       -0.24624914 0.2513117 0.22705801 0.22273448
000160 49 f1 7a 3e ba b6 b3 bd 32 d5 66 3c b8 9e 49 3e
       0.24506105 -0.08775087 0.014088916 0.19689453
000170 69 7e c6 3d ec 49 bf 3d 1d 94 93 3e 4f 82 5f bd
       0.096920796 0.09340271 0.2882394 -0.05456763
000180 9f aa 93 3e 6b 5c b1 3d 08 aa 06 3f 4a 34 85 3c
       0.2884111 0.086602055 0.526032 0.016260285
000190 57 d4 53 be 68 4b ba 3d 18 30 26 3d 1b 61 83 3e
       -0.2068647 0.09096414 0.04057321 0.25660023
0001a0 b1 74 aa 3e 14 bd 05 3e 07 c4 12 3e b3 a9 ea 3d
       0.33292153 0.13060409 0.14332591 0.11458149
0001b0 a0 9a c0 3d f8 77 10 3f 8c 89 5b 3e f3 ce de bc
       0.094044924 0.5643306 0.21439189 -0.02719829
0001c0 e2 23 6d bd 04 64 fe 3d e0 c5 af bc ae 81 08 3c
       -0.05789555 0.1242142 -0.021456659 0.008331699
0001d0 97 8e 8e 3d d5 70 f4 3c 88 cd da bb 28 9c a1 3e
       0.069607906 0.029838959 -0.0066773333 0.3156445
0001e0 48 65 ec 3d 30 a7 b5 3c c8 92 6b bd aa b3 ee 3d
       0.11542755 0.022174448 -0.05751303 0.11655362
0001f0 b1 03 b8 3e 5a 1b e4 bd 94 70 1d be 44 0c 9b be
       0.35940316 -0.111380294 -0.15374976 -0.30282795
000200 6c 8a 91 3e da 7c bb 3e bc 7e e1 be 0a e1 0c bd
       0.2842592 0.36618692 -0.44042003 -0.0343943
000210 5e 88 01 be f2 d9 d6 bd de be 70 bb fb 08 30 be
       -0.12649676 -0.104907885 -0.003673486 -0.17190926
000220 82 7b ff 3d 3e d2 17 3d f7 b7 a3 bd b6 36 83 3d
       0.12474729 0.037065737 -0.07994073 0.0640692
000230 d6 07 ac 3d d6 f8 a8 3d d0 65 b6 3d e9 88 f1 3d
       0.08399932 0.08250587 0.08906138 0.11793692
000240 f8 a3 17 3e c4 b8 1c 3e 01 97 8d 3d 5f aa 7f bd
       0.14808643 0.15304857 0.06913567 -0.062418338
000250 68 8a 31 bb ee f8 cd 3c 5a 94 90 bd 60 b3 ac 3d
       -0.0027090553 0.025143113 -0.07059546 0.084326506
000260 8f 84 73 3e 13 e5 c7 3e f8 f2 7b 3d 05 91 7e bd
       0.23781036 0.39041957 0.06151101 -0.06215002
000270 de f5 ca bd b0 e4 95 3d 77 ad 24 3e 5d 95 5d bb
       -0.09910177 0.07319009 0.16081797 -0.0033810951
000280 e9 85 09 be 9b 6b b1 bc 26 6e 17 be f3 8d 04 be
       -0.13429989 -0.021657756 -0.14788112 -0.12944774
000290 92 cf 9a bd 7d 3f b4 bd 0d b7 78 3d 83 1c 2e 3d
       -0.07559122 -0.08801172 0.060721446 0.04250766
0002a0 76 81 df bc 07 25 ce 3d 73 da e6 3d 24 bf 85 be
       -0.027283411 0.10065656 0.11272135 -0.2612239
0002b0 70 4f 43 bd 05 56 51 3d f9 20 8f 3c d7 11 8c be
       -0.04768318 0.051107425 0.017471777 -0.2735736
0002c0 23 f6 c4 bd 1c 66 3d bb 39 89 1e 3d 7a 53 82 3e
       -0.09617259 -0.0028899973 0.038705084 0.25454313
0002d0 8e dc 02 be 09 69 ef be 38 2a f9 bd 1d 24 53 bd
       -0.12779447 -0.46759823 -0.12166256 -0.051548112
0002e0 d7 45 1f bb 70 54 dd 3d 75 77 f6 bd e0 ad d6 3c
       -0.0024303102 0.10807121 -0.12034503 0.026205957
0002f0 54 96 00 3e ed 3e 55 3e 47 93 4b 3d 5c 5f 2f be
       0.12557346 0.20824786 0.049701 -0.1712622
000300 c7 a1 22 3e 01 11 19 3e 57 e1 9f 3d 53 dd 62 3e
       0.15882026 0.14947893 0.07806652 0.22154741
000310 c4 1d 5a 3d 18 27 aa be a3 72 96 3e ab cb 07 3d
       0.053251043 -0.3323295 0.29384336 0.033153217
000320 b6 9c 11 be f8 1a 2c be b3 44 d8 bd 2c a2 13 be
       -0.14219937 -0.16807163 -0.10559978 -0.14417332
000330 8e 55 ff bd 6d a1 49 3e 2d 26 24 be 10 45 4f be
       -0.1246749 0.19690485 -0.16030188 -0.20241189
000340 6a 0e 61 be b6 1e 53 be 8e 10 3e 3e f3 27 c0 bc
       -0.21978155 -0.20617184 0.18561003 -0.02345655
000350 7c 3a fd 3d 50 2c d3 bd 17 1a 67 bd 36 5f f6 3d
       0.12364671 -0.10311186 -0.056421366 0.12029879
000360 1c e5 d7 ba cf 2f b1 3e c6 e2 04 be 8d fd 22 bd
       -0.0016471478 0.34606788 -0.12977132 -0.039792586
000370 9e 27 39 3e 2b a9 69 be 60 5e 23 bf 84 c3 32 3d
       0.18081519 -0.22818439 -0.6381588 0.04364349
000380 b5 3b 5f be 20 70 97 bd 0e 99 54 be cc c9 60 bd
       -0.2180012 -0.07394433 -0.2076151 -0.05487995
000390 b6 98 29 be d3 e6 ff 3b f0 81 f8 3e c1 5e 85 3e
       -0.16562161 0.007809499 0.48536634 0.26048854
0003a0 29 27 3d 3e a8 a2 08 be 44 da 1b be 3a 27 15 3f
       0.1847197 -0.13343298 -0.1521998 0.5826298
0003b0 3d 1b 4e 3e 34 86 7d 3e 65 b3 e9 bd bd f9 e1 bd
       0.20127578 0.24758226 -0.1141117 -0.11033962
0003c0 a4 5a 17 3e d8 32 b2 bd 4d 54 88 3e ae 99 59 3e
       0.1478067 -0.08701104 0.26626816 0.2125003
0003d0 ab 72 35 bd 0e 6c c5 bd fc eb b7 be 98 c1 13 be
       -0.04429881 -0.096397504 -0.3592223 -0.14429319
0003e0 a1 fc 80 3d f0 78 f1 bc 23 55 45 3e 55 4f 96 3d
       0.06298185 -0.029476613 0.19270758 0.0733935
0003f0 d4 59 93 3e ee 2a af 3e 90 ae f4 bd 51 d6 0b be
       0.2877947 0.3421244 -0.11947358 -0.13655974

7.bias f4 [120]
000000 d1 3b 2e bc 6c e3 5c bd 00 1b 8b bd 8d 06 80 bd
       -0.0106343785 -0.053927824 -0.06792259 -0.062512495
000010 63 24 6b 3e 9d 16 de bc 71 4b 43 bd aa a2 e3 bd
       0.22963099 -0.027110392 -0.04767937 -0.1111501
000020 ab a4 3c bd 4f ab 25 be 8e f9 52 bb 1d 44 ca bd
       -0.046055477 -0.1617863 -0.0032192203 -0.09876273
000030 89 9b a3 3d 1d c4 fc 3c 7c 52 90 3e c7 2c 45 3e
       0.0798865 0.030855233 0.2818793 0.19255362
000040 2c 4e 12 be f2 8b 6c 39 28 ba 55 3e b5 1a cf 3d
       -0.14287633 0.00022558848 0.20871794 0.10112516
000050 71 ff 8f bc 99 7b 5b bd 00 15 49 bd 39 8b d4 3d
       -0.017577859 -0.05358467 -0.049092293 0.10378117
000060 82 3b 80 bd 6c 02 b1 bc 65 f3 6f 3e ac 37 79 3c
       -0.0626135 -0.0216076 0.23432691 0.015211027
000070 b7 aa cd bd b2 45 05 bd 6f 79 62 bd 3b b9 c0 bd
       -0.10042327 -0.03253717 -0.05529159 -0.0941033
000080 bf f6 58 be a7 07 39 3e 37 58 7b bd e7 c3 87 3c
       -0.21187876 0.18069325 -0.061363425 0.016572906
000090 e3 65 fd bd 7a 2e 1a 3c 13 74 46 bd 98 b0 cc bd
       -0.12372949 0.009410495 -0.04845054 -0.0999462
0000a0 db 59 bc 3d e0 d9 3c 3c 3f 52 0f be f5 84 05 bd
       0.09196826 0.011526555 -0.13996218 -0.0325975
0000b0 89 e0 c1 3d fa e1 78 bb 17 bc fe bd 93 12 1d 3c
       0.09466655 -0.003797649 -0.12438219 0.009586948
0000c0 39 30 c0 3d d8 ed 46 be a1 74 71 3d 5b cd 1f bd
       0.09384198 -0.19426668 0.058949117 -0.0390142
0000d0 ab 32 84 3c fb 44 ff 3d 18 1f 3b bd 47 a0 1e 3e
       0.016137442 0.12464329 -0.04568395 0.15490828
0000e0 8b 86 19 3e 5c ee 27 bd a6 25 5b 3d b2 af 83 bd
       0.1499273 -0.0409988 0.0535027 -0.064299956
0000f0 54 ef 0f bd 81 8d 06 bd e9 e0 46 bc d6 ad 19 be
       -0.03514035 -0.032849792 -0.012138584 -0.1500772
000100 c0 c6 be 3d 80 a1 05 bd a8 1f 03 3d ba 1a bb bd
       0.09315252 -0.03262472 0.03201261 -0.09135957
000110 0f 77 62 3d b6 41 df bd f8 5b 23 3e f5 fb 07 bd
       0.055289324 -0.10901205 0.15953052 -0.03319927
000120 e9 88 1f be 4b d4 2b bd 38 ed 03 3e 13 c2 66 bd
       -0.15579571 -0.041950505 0.1288346 -0.056337427
000130 90 c4 2a bd 05 e2 34 3e 9d ab 19 3e 1d 06 0a be
       -0.041691363 0.17664345 0.15006872 -0.13478895
000140 40 42 30 be 75 d6 b5 3c 69 50 9e bd aa 16 94 3c
       -0.17212772 0.022196988 -0.07730181 0.018077213
000150 ed 25 b8 3c 10 13 28 3e f6 85 3a bc a7 1e 82 bb
       0.022479022 0.16413522 -0.011384478 -0.003970939
000160 54 09 28 3e 69 21 92 3b a5 37 19 3d b5 94 03 3e
       0.16409808 0.004459549 0.037406582 0.12849696
000170 ae 0e 3e bd d2 9f df bd f9 31 51 3e 7f 93 05 be
       -0.04640072 -0.10919155 0.2042922 -0.13044547
000180 e7 50 c5 bc 1d 76 57 be 13 e2 6a 3d dd d1 02 be
       -0.024086429 -0.2104115 0.057344507 -0.12775369
000190 2e 68 5c 3e 10 8f 84 3e 0d d5 78 3e ee d0 de 3d
       0.21524116 0.25890398 0.24300022 0.10879694
0001a0 d3 25 70 bd 1c a3 37 bd 93 5a 88 3d e1 f9 f1 bc
       -0.058629822 -0.044833288 0.06657901 -0.029538097
0001b0 80 63 a9 3c eb 74 05 bc d4 61 3f 3b 98 52 30 3e
       0.020677328 -0.008145551 0.0029202597 0.17219007
0001c0 20 13 88 3d cf 2f 33 be f4 35 2d bd 10 55 2b 3d
       0.06644273 -0.17498706 -0.04228778 0.04182917
0001d0 a8 66 ec bc b3 2a ac bb f0 fe b2 bc 47 d6 2b bd
       -0.028857544 -0.0052541136 -0.02185008 -0.041952398

9.weight f4 [84, 120]
000000 05 f0 a1 bc 54 47 ad 3d 77 4b a8 bd d4 a8 91 3d
       -0.01976777 0.084608704 -0.08217519 0.071122795
000010 be 99 90 bc 73 b3 6f bd b0 48 7e bd c8 cd 6a 3d
       -0.017651435 -0.058520745 -0.06208104 0.057325155
000020 31 e3 1b 3e cc f9 f2 3d 07 d0 67 bd ea 9f 81 3e
       0.15223385 0.11864051 -0.056594875 0.25317317
000030 b9 43 82 3d 93 a1 a8 be 1f 5c 12 be 38 d7 a8 be
       0.06360573 -0.3293577 -0.14292954 -0.329767
000040 0e f1 ba 3c 64 d2 cb 3d 34 c6 86 bd e5 4b 33 bd
       0.022820022 0.09952238 -0.06580773 -0.04377355
000050 2f 16 78 be 80 cc a6 3a 80 0a 63 3d c1 25 4a 3e
       -0.24227212 0.0012725741 0.055429935 0.19740964
000060 88 79 ab bd 7c 7c ab 3d fd 75 d2 bd 64 44 12 be
       -0.083727896 0.08373353 -0.10276411 -0.14283901
000070 f5 e1 fa bc 8a 25 3a 3e 18 b7 39 be a3 5d 05 bd
       -0.030625323 0.18178383 -0.18136251 -0.032560002
000080 e0 b7 aa bd 24 db f4 bc c7 d7 e9 3c 6f 55 30 be
       -0.083358526 -0.02988965 0.028545273 -0.1722009
000090 da 6e 6a be b7 1e 7f 3e e6 ad 41 be c7 4e 9f 3c
       -0.22893849 0.2491406 -0.18913993 0.019446744
0000a0 21 d7 81 be ae be 82 3d da 6c 67 bd 04 dd ee 3c
       -0.25359443 0.063840255 -0.056500293 0.029158123
0000b0 21 51 6b be 38 55 77 bd 25 0a 47 be 4c f7 91 bd
       -0.22980167 -0.060384005 -0.19437464 -0.07127246
0000c0 f5 ed 37 be dd bd 72 3e 57 1a 50 3d 60 f0 5b 3d
       -0.17961867 0.2370524 0.05080637 0.053696036
0000d0 59 56 17 bd cb b0 3c be d8 78 83 be 85 65 31 be
       -0.036947582 -0.18426816 -0.25678134 -0.17323883
0000e0 be 65 e4 3d e8 12 57 bd e4 bd ae be 6e 77 8e bd
       0.11152218 -0.052508265 -0.3412925 -0.06956373
0000f0 05 c7 37 3e 10 d8 0b 3e 80 2a 77 3d 88 a5 07 bd
       0.17947014 0.1365664 0.060343266 -0.033116847
000100 17 da 7f bd 4f c3 06 bd 8b 98 f7 3d ef fe ce 3c
       -0.062463846 -0.032901105 0.12089642 0.025268046
000110 5b 2e 16 be 47 a9 10 be 54 1e 33 be 35 ac fc 3b
       -0.1466612 -0.14127074 -0.17492038 0.0077109584
000120 bd 2a 15 bd 18 b6 e0 3c 78 6a 10 bf ec 86 99 be
       -0.03641771 0.027430579 -0.5641246 -0.2998575
000130 70 07 c9 bb 01 76 d3 bc 08 d1 e0 3d 4c 27 40 be
       -0.00613492 -0.025813105 0.109773695 -0.1876499
000140 ab 06 3e 3d 84 a5 59 3d 84 18 e4 3d 7b 23 1c 3d
       0.046393078 0.053136364 0.111374885 0.038119774
000150 65 01 7d 3c 18 46 ad be 30 f8 36 bc 88 3b c7 bc
       0.015442227 -0.3384254 -0.011167571 -0.024320379
000160 3d 66 48 be 6a e1 ca 3c 77 35 61 be 24 e5 ec 3d
       -0.19570251 0.024765689 -0.21993051 0.115671426
000170 00 d6 9b ba 9b 1b ad bd 2b a6 b6 3d d9 c7 88 bd
       -0.0011889338 -0.08452531 0.08918413 -0.06678743
000180 a8 75 53 3d c1 f4 24 3e 2a 6e de bd 58 54 08 bd
       0.051625878 0.16108991 -0.10860856 -0.03328356
000190 4e 7c 5b be ea 72 5e be 8e 4b 92 be c2 5e f0 3d
       -0.21434137 -0.21723524 -0.2857327 0.117368236
0001a0 b0 c5 be 3c bc 13 13 bd f0 e8 26 be a4 b4 85 3d
       0.023287624 -0.035907492 -0.16299796 0.06528595
0001b0 9f dc 3b be 58 cc 08 3d a4 47 99 bc 0f ab a5 3c
       -0.18345879 0.033398002 -0.018710919 0.020223169
0001c0 a6 6e 0a be 0a b5 e8 bd 7c 9e 92 3c f0 8f cf be
       -0.13518772 -0.113626555 0.017897837 -0.40539503
0001d0 10 b0 a5 bd 35 17 28 bd e0 ad ba 3d d6 9d 9e bd
       -0.08090222 -0.041037757 0.09115195 -0.077449486
0001e0 e9 59 fb be 93 22 45 3d cb cc 0c 3e b2 84 13 3c
       -0.49092034 0.048128676 0.13749997 0.009003805
0001f0 da d4 57 be c1 94 88 3e bb 7e 14 3d fe cc dd be
       -0.2107729 0.2667599 0.036253672 -0.4332046
000200 53 c5 a1 3d cd 62 23 bf 7e 6e 02 3d 78 fb bb be
       0.07898965 -0.63822633 0.031843655 -0.36715293
000210 8f fc 81 3d 3f c7 c8 3d 74 d6 be 3c ca bb 11 3e
       0.06347 0.09803628 0.023295619 0.14231792
000220 be 0b 19 3d 5a 0b 3f 3e 4b f2 b1 be 8b 7c 5b be
       0.037364714 0.18656674 -0.34755167 -0.21434228
000230 3a c7 48 3d be 40 e9 bc 4b 61 03 3d c9 8e bf be
       0.049018122 -0.028473254 0.032075208 -0.37413624
000240 dc 7d d0 bd 12 bf 02 bd 7e c4 55 3d e6 55 f4 3c
       -0.10180256 -0.0319205 0.052189343 0.029826116
000250 44 40 04 3e 12 5e 80 bd 30 5a 05 3e 55 1b 59 3d
       0.1291514 -0.062679425 0.13022685 0.05300458
000260 f0 34 e7 bc 62 66 8e 3b de 12 5f be 37 d5 c2 3d
       -0.028223485 0.004345701 -0.21784541 0.09513324
000270 7f 2f 82 3d 18 f9 dc 3d 1a 18 3d 3e d8 86 7c 3d
       0.063567154 0.10789698 0.18466225 0.061652035
000280 9d dc 18 3e 7c a8 4b bb 17 b5 15 3e 91 ee 82 bd
       0.14927907 -0.0031075766 0.14619862 -0.06393159
000290 f4 18 55 3e 7f cf bf be c6 0c 11 3e 39 af 83 3d
       0.208103 -0.37462994 0.14165029 0.064299054
0002a0 ea 8b 2e 3e 74 cb 25 be 41 10 51 3e 48 fe 3a 3c
       0.1704556 -0.16190892 0.20416357 0.011413164
0002b0 20 1a 8a 3e 94 3d 29 3e 31 24 e6 3e d8 1b a1 3e
       0.26973057 0.16527396 0.44949487 0.31466556
0002c0 7c 47 9d bc d2 e7 33 bd bd 18 6e be c0 2d c7 bd
       -0.019199125 -0.043922253 -0.23251624 -0.09725523
0002d0 0e ac 82 bd fe da eb 3d f8 5a 88 3c 83 60 4f be
       -0.06380473 0.11516379 0.01664494 -0.2025166
0002e0 82 e4 d8 bd 1c c1 98 bb a7 5d 08 bf 6e d1 f1 3c
       -0.105904594 -0.0046616923 -0.532679 0.02951881
0002f0 70 f3 b6 3d 07 b6 01 3d 81 f4 c2 3d 06 5f 9c bd
       0.08933151 0.031667735 0.09519292 -0.07635312
000300 d8 c5 9d bc 88 24 b0 3d 42 38 9e bd 4d 3b 29 3e
       -0.019259378 0.08600718 -0.07725574 0.16526528
000310 07 e2 bc 3d 41 6d 8e be 3f 71 8d be 99 39 4c 3e
       0.09222799 -0.2781773 -0.27625462 0.19943847
000320 2b 7b f3 bd ea 4b 2f bd 2d 32 80 3e c6 42 8f 3a
       -0.11888727 -0.042797007 0.2503828 0.0010929934
000330 6d 48 82 be f0 01 da be e3 9c 49 bd 2d ef 9c bc
       -0.2544588 -0.42579603 -0.049221884 -0.019157017
000340 74 8e 2a be 2d 3b a3 3e 92 47 af 3d 48 e2 23 bd
       -0.16655904 0.31881085 0.08558573 -0.04001072
000350 94 f7 bf bd 93 e5 9e 3e da 51 0e be 5c 52 a0 3c
       -0.09373394 0.31034526 -0.13898411 0.019570522
000360 a3 0d 82 3d 63 c2 58 be c7 b8 53 3c ed 3d bd 3d
       0.06350257 -0.21167903 0.012922472 0.09240327
000370 14 27 96 3d c4 01 9b be d7 48 bd be f9 9d f0 bd
       0.07331672 -0.30274785 -0.36969635 -0.11748881
000380 6e 4a c5 bd f2 a3 57 3e 8f 9e d3 be f5 cf 6e 3d
       -0.09633337 0.21058634 -0.41331908 0.058303792
000390 ec 20 a7 3e 47 17 70 bd 30 87 71 3b e8 3b 22 bf
       0.32642305 -0.05861595 0.003685426 -0.6337266
0003a0 45 2c a1 be ec 07 b0 3d d4 c4 c7 bc ca 20 ac bc
       -0.31479087 0.08595261 -0.024385847 -0.021011729
0003b0 6d 90 30 bd fa 5c cc bc de ab 5a bd 0b 53 c0 bc
       -0.043106485 -0.024946678 -0.05338656 -0.023477098
0003c0 a2 c5 b3 bd 0c a0 6c 3b 97 f2 99 bc 0a 4d ed 3d
       -0.0877793 0.0036106138 -0.018792434 0.1158696
0003d0 81 e5 d3 bd a9 24 36 3e 80 1d 45 3d 03 5e 81 bc
       -0.10346509 0.17787422 0.048123837 -0.015791899
0003e0 63 f5 4d be 06 61 13 be 40 c6 a9 bc 7d aa d7 3c
       -0.20113139 -0.1439248 -0.020724416 0.026326412
0003f0 ba 13 68 be b4 bc 5b bd d1 ce 05 bd ad aa 5a 3d
       -0.22663775 -0.05364676 -0.03266794 0.053385425

9.bias f4 [84]
000000 81 83 52 be 78 87 6c 3c 44 cb 98 bd fd f2 03 3c
       -0.20557977 0.014436595 -0.07460645 0.008053538
000010 fb 54 a7 3c 9a fd 94 bc 90 de c3 bd f9 aa 92 bc
       0.020426264 -0.018187333 -0.09563935 -0.017903792
000020 e8 34 24 be 03 ad 7f 3e 0c d9 90 3e fe a7 e1 3b
       -0.16035807 0.24968342 0.28290594 0.0068864813
000030 af 0b f2 bd 37 97 51 bd e3 c5 3a 3e 6b 5f ab 3c
       -0.11818635 -0.0511696 0.1823955 0.020919522
000040 72 46 f6 bb 7b 8c 4c be 3b 5e e1 bc a9 70 c7 bd
       -0.007515722 -0.19975464 -0.027510753 -0.09738285
000050 f4 3f fe bd 95 ef 64 3d 46 64 54 3e 9c 17 aa bd
       -0.12414542 0.055892546 0.20741376 -0.083052844
000060 2b ff 92 3e 2d e8 b7 bc 17 7e 09 be cd cf 3a be
       0.28710303 -0.022449577 -0.13427006 -0.18243332
000070 ee 16 c5 3c 6e a9 84 3e cb 4b 3f bd ff 76 1f 3d
       0.024058785 0.25910515 -0.04670314 0.038931843
000080 50 85 34 be 57 06 59 3d 8c ae ec bd 78 a5 ad 3e
       -0.1762898 0.05298456 -0.1155673 0.33915305
000090 40 bf aa 3c 3a d0 99 3e 7f bd 28 3e f6 a6 15 3e
       0.020843148 0.30041677 0.16478537 0.14614472
0000a0 32 13 4d be d8 a4 43 be 33 fc 05 3e 11 ac a5 3c
       -0.20026854 -0.19105852 0.13084488 0.02022365
0000b0 14 15 01 be 4f 0d 17 be c2 0a c6 bc 3a 6b 06 3e
       -0.12605697 -0.1475117 -0.024175052 0.13126841
0000c0 bc 9b 55 3c 7d 5a 49 bd a4 dc 12 be 13 2c 20 be
       0.013037618 -0.049158562 -0.1434198 -0.15641813
0000d0 4a e7 63 bd 77 1a 07 3e 95 5b b1 3e 64 80 11 be
       -0.055640496 0.1319369 0.34640184 -0.14209133
0000e0 ed 35 58 3e 00 51 36 be dd 34 24 3e 54 a3 f3 bd
       0.21114321 -0.17804337 0.1603579 -0.11896387
0000f0 80 b9 91 bd 33 b5 1c 3e 32 f2 19 be 2b fd 9a 3d
       -0.071154594 0.15303497 -0.15033796 0.07567819
000100 a0 9f c7 bd b1 40 85 3e 30 1e 23 bd fa 04 71 be
       -0.09747243 0.26025918 -0.03982371 -0.23537055
000110 17 4e 67 be ae 28 11 be e0 a4 50 bd 6a bb c9 3e
       -0.22588383 -0.14175674 -0.050938487 0.39400798
000120 2f 4f 4e 3e 64 8c fd 3c 3d d2 60 3e 2a da 78 3e
       0.20147394 0.030950733 0.219552 0.24301973
000130 a6 7b b0 3e ef c7 b4 bc 2b 9a e9 bc 49 10 94 bd
       0.34469336 -0.022067992 -0.028515896 -0.07229669
000140 dd 0e 98 bc 2d 2e b6 bd e6 4c a4 bd 1f 3c a9 3c
       -0.018561775 -0.08895526 -0.0802248 0.02065855

11.weight f4 [10, 84]
000000 7c c8 80 3d fe 7b 34 be 70 06 94 3d 73 d6 59 3e
       0.06288239 -0.17625424 0.0722779 0.21273212
000010 4a 63 f8 bd 40 78 79 be 19 bd 9b bd 06 4f 9f 3d
       -0.12128313 -0.24362278 -0.07604427 0.077787444
000020 20 e6 10 3e b5 0d c6 3d 6f 16 2c bf 51 66 ba 3d
       0.14150286 0.09670583 -0.6722173 0.091015466
000030 ca 86 5a be 2c b0 bb be 3a ef e9 3c 24 f9 77 be
       -0.2134048 -0.36657846 0.028556455 -0.24216133
000040 ad 01 a4 bd cd 35 be 3d 26 35 05 3e 93 66 9c bd
       -0.08008132 0.092876054 0.13008556 -0.07636752
000050 a3 f4 70 bd bf d9 8d be 10 ba 6a be f6 93 ae be
       -0.058827054 -0.2770519 -0.2292254 -0.3409726
000060 b1 32 8a bd b2 11 06 3f 67 f4 9a bc 90 80 31 bf
       -0.0674795 0.5237075 -0.018915368 -0.69336796
000070 52 3b 29 3d e3 83 70 bd a9 aa d4 be 51 3d a4 3d
       0.041316338 -0.058719527 -0.41536453 0.08019508
000080 f3 69 64 bc 4f 23 c0 be b0 4b 03 3d 61 0d 35 bd
       -0.013941276 -0.37526938 0.032054603 -0.044202212
000090 79 f5 95 bd 41 42 9f be b7 8f e8 bd 89 9a a3 3d
       -0.07322211 -0.31105235 -0.113555364 0.079884596
0000a0 41 ba 9d be 85 47 cc bd 3d 04 f3 bc 56 78 9c be
       -0.30806163 -0.09974579 -0.029665107 -0.3056056
0000b0 5a 67 8e 3c 16 92 45 be 1a b8 47 be 3e 91 a6 bd
       0.017383266 -0.19294009 -0.19503823 -0.081331715
0000c0 0f 70 8f be 49 f8 b9 3d 00 93 32 be 15 d3 55 bd
       -0.2801518 0.0908056 -0.17438889 -0.052203257
0000d0 b6 aa 07 3e 9e d5 91 be f2 c6 0e bf c7 b6 40 be
       0.13248715 -0.2848329 -0.55772316 -0.18819724
0000e0 6d 0e fe bc c1 72 1d 3e 57 6b 64 3e 19 27 86 be
       -0.031012738 0.15375806 0.22306572 -0.26201704
0000f0 10 12 02 bf ba 31 13 3e f4 96 c7 3c 31 0f 7a 3e
       -0.5080881 0.14374438 0.024363972 0.24419858
000100 2e aa 1f 3b 88 e8 23 3e df 36 32 be ed e9 6f be
       0.002436291 0.16006672 -0.17403744 -0.2342908
000110 87 4a 47 be ad 1f ce 3e 77 66 12 bd 07 9d 3e 3e
       -0.19462024 0.40258542 -0.03574225 0.18614589
000120 50 ab d5 be 97 7f 54 be 1f 40 0c 3d 30 99 b8 be
       -0.41732264 -0.20751797 0.03424084 -0.36054373
000130 32 b1 85 be 76 3e 1f 3e d8 0f e0 be 8b 76 23 3e
       -0.26111752 0.1555117 -0.43762088 0.1596319
000140 13 fd 99 be 57 f5 a8 bd d6 3f 3b be 91 73 9a be
       -0.30075893 -0.0824992 -0.1828607 -0.30166295
000150 40 06 12 be d0 41 fa be ee 8d b7 bc eb c1 a6 be
       -0.14260197 -0.48878336 -0.022406545 -0.32569823
000160 66 d5 46 be 8c 12 83 be fc 6c 48 3e 0b 9a 44 3e
       -0.19417343 -0.25600088 0.19572824 0.19199388
000170 ff 78 68 3b f3 4a 3c 3e 8d 12 0e 3e 69 90 19 3e
       0.003547251 0.18387966 0.13874264 0.14996494
000180 7d 2e a5 bb 9e fe 64 3e e7 5d b3 be d8 e5 58 3e
       -0.005040942 0.22362754 -0.3503258 0.21181428
000190 7d 61 a1 be 05 2c 40 be 95 5e 85 be c5 6f 68 bd
       -0.3151969 -0.18766792 -0.26048723 -0.056747217
0001a0 51 2d cd bd 3a 5a 15 3d 03 7d 94 bd 72 cc 6c 3e
       -0.10018409 0.036463 -0.072504066 0.23124865
0001b0 c7 cd cb bd f7 55 2c bf 1d 30 01 bf de 74 4a be
       -0.09951358 -0.6731867 -0.5046404 -0.19771144
0001c0 0f 38 08 bf 6e 84 93 be 2a 8d 3b be 5e fd 92 3d
       -0.5321054 -0.28811973 -0.18315569 0.07177232
0001d0 5b df 67 bc 9d e1 c7 be c1 42 5f 3d 1f c9 a3 be
       -0.014152373 -0.39039317 0.05450702 -0.3198938
0001e0 09 7d 66 be a2 01 82 bc 23 2d 01 be 6d 58 bd be
       -0.22508635 -0.01586992 -0.12614875 -0.36981526
0001f0 b9 5f 3f 3e 6a 43 9b be 6d 77 ce be 72 cc 83 3e
       0.18688859 -0.3032487 -0.4032549 0.25741917
000200 ff 86 d0 bd c4 1a 6e be 58 cc 64 3d 12 cb 4e be
       -0.101819985 -0.23252398 0.05585894 -0.20194653
000210 34 de a0 be fe a7 b6 3d 9f bf 08 be e6 15 bc bc
       -0.31419528 0.08918761 -0.13354348 -0.02295966
000220 fe 39 9f 3c 81 89 8d bd 32 8e a2 be fe 48 e9 bd
       0.019436833 -0.069109924 -0.3174911 -0.11390875
000230 c0 af a3 be 03 51 e3 3d cd 97 30 bd cd 0f fb 3d
       -0.31970024 0.11099436 -0.04311352 0.12258873
000240 88 40 73 3e de 62 d4 bd 6f b2 46 bc 37 31 da bc
       0.23755085 -0.1037042 -0.012127503 -0.026634796
000250 b6 3e 07 be a4 f8 71 be 10 8e 6b be 32 55 3e 3e
       -0.13207516 -0.23630005 -0.23003411 0.18587187
000260 bf 07 f4 3d b8 1a cc 3e d0 da fe bd 5d 45 6e be
       0.1191554 0.39864135 -0.12444079 -0.23268647
000270 bd 7c 6d bd 15 30 93 bd bc 84 ac bd ed 60 75 bc
       -0.057980288 -0.07186905 -0.084237546 -0.014976722
000280 5c 1b 70 3d fa 94 33 3d b1 af 0d 3e 34 50 c7 3d
       0.058619842 0.043843247 0.13836552 0.097320944
000290 4b ee f1 3d 0d 48 43 bd 66 94 45 3e 37 76 81 be
       0.11813029 -0.047676135 0.19294891 -0.25285503
0002a0 db 35 9e be 51 b3 16 be 15 44 fb 3d d7 e2 0c be
       -0.30900463 -0.14716841 0.12268845 -0.13758408
0002b0 70 1f b1 3d 5d 25 5d be a7 9e f6 3d cd ee 9e be
       0.08648574 -0.21596284 0.12041979 -0.31041566
0002c0 4f b4 ca 3d 44 29 a6 be b4 9d 90 be 7b 36 d9 be
       0.098976724 -0.32453358 -0.28245318 -0.42424378
0002d0 c1 b8 5f bd 84 49 3c 3e 4e ba ef bd 6c a3 d2 be
       -0.054619554 0.18387419 -0.11705457 -0.41140306
0002e0 e6 44 ad be 9b b6 c4 bd 81 f5 6d bc a5 83 9d bd
       -0.33841628 -0.09605142 -0.014523865 -0.07691125
0002f0 35 a3 b0 bd 1a 3d a8 bd b0 a6 dc bc 97 68 b6 be
       -0.08624879 -0.08214779 -0.026934952 -0.3562667
000300 fc 30 f4 bd 86 df 03 be ea 12 04 be ad ab d5 be
       -0.119234055 -0.12878236 -0.1289784 -0.4173254
000310 e4 55 a1 bd b8 19 20 bd a7 e4 98 3d aa ac 39 3e
       -0.078777105 -0.039087027 0.07465487 0.18132272
000320 21 1e 56 3d 3c ea 91 bd 1b b0 57 bd 03 59 cc bd
       0.052274827 -0.07124755 -0.05265818 -0.09977915
000330 2f 1f ce bb cd 8b e3 3c ac 2f 5e 3e 9a 0c 12 be
       -0.0062903385 0.027776623 0.21697873 -0.1426262
000340 1c 84 c3 3d a3 ce 07 3e 6f 1f 8e 3e d5 5f c1 be
       0.09546682 0.1326242 0.27758357 -0.37768427
000350 78 35 8e 3d 88 d9 44 be 31 02 f7 bd 22 e4 c9 be
       0.06943792 -0.19223607 -0.12060965 -0.39431864
000360 36 da 59 3e 56 a7 c1 bc 41 86 b9 bd a2 6a b8 3a
       0.21274647 -0.023639362 -0.0905881 0.0014069865
000370 a3 f4 89 3e 32 61 67 be b7 66 a1 3c 19 4f 86 3e
       0.26944456 -0.22595671 0.019702299 0.26232222
000380 41 fc e0 be a0 c3 cd bc e6 1f 6e 3e 3a 04 39 3e
       -0.43942454 -0.025117695 0.23254356 0.18068019
000390 73 3f ee 3c 9b 55 1e be 8e 75 33 bc e7 ea 13 be
       0.02908299 -0.15462343 -0.01095332 -0.14445077
0003a0 79 67 3c 3d 28 2d 08 3d e2 c4 3e 3d 9f 8b 23 3e
       0.045997117 0.03324619 0.04657448 0.1597123
0003b0 84 7b 17 3c 2e 93 ca be 2d 36 97 bd e7 2c 81 bd
       0.009245757 -0.39565414 -0.0738338 -0.063073926
0003c0 62 f1 93 be 8f ad 22 be ae 9d 31 3e b5 15 e3 3d
       -0.28895098 -0.1588652 0.17345306 0.11088125
0003d0 97 aa 07 bf 78 83 a8 bd 9b 40 04 3e 35 78 36 3e
       -0.52994674 -0.08228201 0.1291527 0.17819293
0003e0 2e 0a 53 3e 41 41 8c bc ae cd 3c bc 02 27 84 be
       0.20609352 -0.01712096 -0.011523647 -0.2581101
0003f0 92 6b a4 be f7 b8 07 be c8 04 27 bf c3 72 83 3e
       -0.3211332 -0.13254152 -0.6524167 0.25673494

11.bias f4 [10]
000000 60 96 21 be 8d bc 78 be 50 98 b1 bd 52 7e 33 bd
       -0.1578002 -0.24290676 -0.086716294 -0.04382164
000010 d0 fe 69 bd 9d 9c fd 3c 50 81 12 bd 7f aa 84 be
       -0.057127774 0.030958468 -0.035767853 -0.25911328
000020 70 c7 f2 3e cd d8 6f 3d
       0.47417784 0.058556367
