lenet.pth (torch, 249799 bytes, 10 tensors)

0.weight f4 [6, 1, 5, 5]
000000 05 cc 8a bd 14 4b b1 3d 23 da de 3c 81 31 eb 3d
       -0.06777195 0.08656898 0.027203625 0.114840515
000010 6f 92 14 3e be ae a7 3d 55 2e d0 3e 8d a8 34 3e
       0.14508985 0.08187626 0.4066035 0.17642422
000020 cb ff da 3e 13 88 5d 3d b7 a0 9c 3d 5b 1e 93 3e
       0.4277328 0.05408485 0.076478414 0.28734097
000030 4d 72 fc 3e 68 db c6 3e 13 b3 83 bd fd 48 b4 be
       0.49305955 0.3883927 -0.0643064 -0.35211936
000040 7f 64 b5 be 87 16 04 be 51 76 56 bd 8a 92 52 be
       -0.35428235 -0.12899218 -0.05235893 -0.20563713
000050 6b 68 bb be 68 ed af be 1d bf c9 be 11 8f 74 3c
       -0.36603102 -0.34360814 -0.3940362 0.014926688
000060 6d 2e 5e be 36 db 4e 3d ed 2d fc be fd af 94 be
       -0.21697398 0.050502025 -0.4925379 -0.29040518
000070 26 2b 17 3e 8c 2a 6c 3c cb 94 40 bf 29 aa 12 bf
       0.14762554 0.014414441 -0.7522704 -0.57290894
000080 df 5b e1 3e 90 3d 07 3f 8e 37 b4 3e de bd b6 be
       0.44015405 0.5282831 0.35198635 -0.35691732
000090 de 30 da 3d f1 e4 38 3f fe 61 db 3e 88 e2 28 3e
       0.10653852 0.72224337 0.428482 0.16492665
0000a0 54 49 10 be 64 51 a6 3d 69 ca 7f 3d 87 0b 2a 3e
       -0.14090472 0.08120993 0.062448893 0.1660596
0000b0 fd f9 36 be 15 2e 05 be 3d 30 02 3d ca d6 69 be
       -0.178688 -0.1300586 0.031784285 -0.22835842
0000c0 c3 a1 6a bd 9a 78 64 be 24 0b 88 bd 0a 77 f1 3c
       -0.057283174 -0.22311631 -0.0664275 0.029475708
0000d0 4e 99 17 3d 0f a6 00 3e d6 ff 48 bd 06 58 23 bf
       0.037011437 0.12563346 -0.04907211 -0.6380619
0000e0 29 cb bd bd cb ef c7 3e 07 48 ed 3b 76 1c 98 bd
       -0.09267265 0.39050135 0.0072412523 -0.074273035
0000f0 0a 6b 3e be 85 c7 0e 3f 97 ea aa 3e dd 0a 6d 3e
       -0.1859552 0.5577319 0.33382103 0.23148675
000100 b0 6d c4 be 94 a0 91 bd 19 f6 91 3e a4 7a eb 3d
       -0.38364935 -0.07110706 0.2850807 0.11498001
000110 d6 59 24 bf 91 f4 23 bf d8 a9 b8 3d 74 22 f8 bd
       -0.6419958 -0.64045054 0.0901677 -0.121159464
000120 fa 18 37 be 88 1a c1 be 97 94 cc bd 4a 4e 8d 3d
       -0.17880622 -0.37715554 -0.09989279 0.06899698
000130 26 61 5e be 69 09 a4 bd 03 6a ec bd 58 00 e1 bd
       -0.21716747 -0.08009607 -0.11543658 -0.10986394
000140 dd c1 9c bd dc 11 cc bd 2e 21 d9 bd 7f 9e 7f be
       -0.07654164 -0.09964344 -0.10602032 -0.24962805
000150 d6 e3 63 be 45 46 f8 bd 15 8e a8 bd f1 b6 91 be
       -0.22254881 -0.12122778 -0.08230225 -0.28459886
000160 a0 cd 6b be 34 d4 11 bd 64 25 c7 3e b7 f1 a9 3e
       -0.23027658 -0.035602763 0.38895714 0.33192226
000170 fd 1b 0b 3f f9 a4 ac 3e 10 f2 d6 3d 8f 4b 8b bd
       0.5433958 0.33719614 0.104953885 -0.06801521
000180 d0 0d 22 3e 37 56 29 3e df 69 8b 3e 3c 6f 2c bc
       0.15825582 0.16536795 0.2722921 -0.010524567
000190 20 bd 66 bd 0e ea 31 3e 81 3b 93 3e 1c 2e c0 be
       -0.056332707 0.17374441 0.28756335 -0.3753518
0001a0 0d 84 38 bd f3 bb 6c be 60 80 08 3e 2b f9 2c bf
       -0.04504781 -0.23118572 0.13330221 -0.675677
0001b0 10 e9 85 bf 72 f9 af be 75 08 76 be 1d c9 0c 3f
       -1.046175 -0.3437 -0.24026664 0.54994375
0001c0 83 b9 06 3f 0d 93 1a 3e 0a 93 01 3f 2e ee bb be
       0.5262682 0.15095158 0.5061499 -0.36705154
0001d0 52 42 ee 3e e6 c7 c3 3e 1d ba a4 3e 5f e6 2a be
       0.46534973 0.38238448 0.32173243 -0.16689442
0001e0 5d 5a 1f bf 0d dd 2d be 87 30 a2 be 51 30 3d 3e
       -0.6224726 -0.16978855 -0.31677648 0.18475462
0001f0 e0 11 29 be 03 e8 9b 3e 77 7f 1a 3c 50 73 fb bd
       -0.16510725 0.30450448 0.009429804 -0.122778535
000200 75 a2 fd bd 14 5d 72 bd 9d 92 73 be b0 ed 0e be
       -0.12384502 -0.059170797 -0.23786397 -0.13957858
000210 65 01 03 3e 96 33 08 3e 89 9e ea be 5c 0a 31 be
       0.127935 0.13300928 -0.45824078 -0.17289108
000220 01 4f c0 3e 7c 6d a7 3e 3d 3c 2f 3f a8 ff f0 be
       0.37560275 0.32700717 0.6845129 -0.4707005
000230 de 94 df bc d7 e3 bf 3e ba 3b 5b 3e 92 57 d1 3e
       -0.027292665 0.37478516 0.21409503 0.40887123
000240 ab 6d 84 be 11 2d ac be e4 50 af be 9e be 13 be
       -0.2586492 -0.33628133 -0.34241402 -0.14428183
000250 ea 4d f9 3e ab b3 30 be
       0.48692256 -0.17256038

0.bias f4 [6]
000000 20 a1 88 3d 3d 89 be bd 78 16 a5 bd f3 b4 bb 3d
       0.06671357 -0.0930352 -0.08060926 0.09165373
000010 e6 4b d8 bc 88 d3 ac be
       -0.026403379 -0.33755136

3.weight f4 [16, 6, 5, 5]
000000 0d 55 66 be 7d 84 0f bf 4e b9 0c be 93 3e 62 bd
       -0.22493382 -0.56061536 -0.13742563 -0.055235457
000010 39 39 44 be fd ba 4d bd ea 83 f4 be 20 dc 2f bf
       -0.19162454 -0.050227154 -0.47756892 -0.6869526
000020 8e b2 75 be 86 84 8a 3e 07 98 8d bb 52 35 bb 3e
       -0.23993894 0.27054232 -0.0043211016 0.36564118
000030 0d c7 d6 be 2c 2c c7 bf f9 35 16 bf 91 ac 00 bf
       -0.4194874 -1.5560355 -0.58676106 -0.50263315
000040 2a cf da bc 93 9a 0c 3f 94 d4 96 3e 22 7f 66 be
       -0.026710112 0.5492336 0.2945906 -0.22509435
000050 13 af 8f bd 31 43 b0 be 1b 2f 4c 3e ff 9f 58 3e
       -0.07015815 -0.34426263 0.19939844 0.21154784
000060 7f 9f 83 3e a4 22 32 bf 0e 23 55 3b f1 1b 65 3e
       0.25707623 -0.6958411 0.0032522115 0.2237394
000070 70 ca c1 bd 14 fe 82 3d 50 07 82 be 18 f3 80 be
       -0.0946244 0.06396118 -0.25396204 -0.25185466
000080 c5 bd 93 3d f5 90 01 3d 80 39 c2 3e 37 84 3b be
       0.0721393 0.031632382 0.37934494 -0.18312155
000090 bb 7b 3a bc 46 c1 66 3b 40 d6 36 bf 98 5b 26 3d
       -0.011382039 0.0035210415 -0.7142067 0.040614694
0000a0 75 20 e8 be c3 61 be 3e f3 15 44 bd d9 97 8f be
       -0.45337263 0.3718396 -0.047872495 -0.28045538
0000b0 c4 4a c5 3e 88 94 9c bd 03 ac 9c be 75 62 c9 3d
       0.38533604 -0.076455176 -0.30599985 0.09833232
0000c0 a7 bb 41 be 88 62 a7 be bc cf 0f 3e 9a bc 2c be
       -0.1891924 -0.3269236 0.14044088 -0.16868821
0000d0 68 ed 29 3f fa 3f b2 be df 97 53 be dd 3d c8 bd
       0.6637788 -0.34814435 -0.20663403 -0.097774245
0000e0 f5 30 fc be b3 7c e5 bd f0 f4 07 bf ec e2 49 3e
       -0.492561 -0.11205425 -0.5310812 0.1971547
0000f0 59 39 d7 3c 83 6f f7 be 90 98 19 bf f9 d9 3b be
       0.026272463 -0.48327264 -0.59998417 -0.18344869
000100 c8 cf 3d 3e 6f 0b 0b bf 2a 17 3d be f7 71 70 be
       0.18536294 -0.5431432 -0.18465868 -0.23480974
000110 44 6e 4e bf 98 93 b6 3e 5e 6c 22 be a5 0f f3 3d
       -0.80637 0.3565948 -0.15861651 0.11868218
000120 9a 75 8e be 23 c7 80 be 5d d2 4a be 0b ac 0d 3f
       -0.27824098 -0.2515193 -0.1980681 0.5534064
000130 33 c3 9b 3e cd 9e 73 be b6 c7 03 3d 9e 03 fe 3d
       0.30422363 -0.23791046 0.03217288 0.12403034
000140 30 0b 33 bb a6 fc e2 3e 6b 61 73 3e e0 86 97 be
       -0.00273199 0.4433338 0.23767631 -0.2959509
000150 fb 31 85 be d9 1d 15 bf 6f 1f ff bd d2 37 e0 3e
       -0.26014695 -0.5824867 -0.12457167 0.43792588
000160 4b dd 17 3e 73 37 41 be 21 62 88 3d 95 cc 0f be
       0.1483051 -0.18868808 0.066593416 -0.14042886
000170 dd c0 51 3e 7f 51 1f 3f 60 52 1e 3f 94 b4 15 bf
       0.20483728 0.6223373 0.61844444 -0.58478665
000180 50 56 18 bf e3 fa 06 bf ec a9 46 bf 9e d8 50 bf
       -0.595067 -0.5272657 -0.7760303 -0.8158053
000190 67 d0 ce 3e ce 3e 66 bf e3 49 bf 3c c3 e3 9a 3d
       0.40393373 -0.8993958 0.023350662 0.07562973
0001a0 53 49 c9 bb 7c 60 8f 3e 5b 3f cf 3d 49 67 c3 be
       -0.006142774 0.280033 0.10119506 -0.38164738
0001b0 46 c4 1e 3e 08 ac 68 3f a6 01 e8 be 59 64 86 3e
       0.1550456 0.908875 -0.45313758 0.26248434
0001c0 f0 d9 51 3e 89 0a 34 bf a1 cf c5 be 06 74 45 be
       0.20493293 -0.70328575 -0.3863497 -0.1928254
0001d0 62 d5 da be e0 23 fd 3e 9b 1f 6a 3f 48 22 d7 3e
       -0.42740923 0.49441433 0.91454476 0.42018342
0001e0 6a bf 69 bd 2d 6a 45 bf e7 9a 54 bf 2d 79 9a be
       -0.057067312 -0.77115136 -0.8304886 -0.30170575
0001f0 67 f6 d6 be 47 a6 a9 3d b5 83 3c bf 95 3c e5 3d
       -0.41984865 0.08283668 -0.7363847 0.11193196
000200 4a 8b 8f bb fe 56 e4 3e c7 56 9d 3e 06 8c 1f 3d
       -0.004380618 0.4459762 0.30730268 0.038951896
000210 7e 47 08 bf 42 3e ec be 07 97 41 3f 84 88 3e bf
       -0.5323409 -0.4614125 0.75621074 -0.74427056
000220 15 6b 08 3f 15 c9 c7 3e 6f 1d 7f bf 5e 21 1b be
       0.53288394 0.390206 -0.9965429 -0.15149447
000230 c4 28 d4 be 84 5a e0 be 81 c5 08 3f e6 a2 a7 3e
       -0.41437352 -0.43819058 0.5342637 0.3274147
000240 39 7f 9b 3e 62 ae e2 3e 9b ee 1e bf 3f dc 3c be
       0.303705 0.4427367 -0.62082833 -0.18443392
000250 16 24 66 be ad de 7b be b0 ea 74 bd d1 7f 54 bd
       -0.22474703 -0.24596663 -0.059794128 -0.051879708
000260 68 6a bf bd a5 9d 90 bd d8 c7 0b bb 85 d8 0f bd
       -0.09346467 -0.07061318 -0.0021328833 -0.0351186
000270 fa ee 9b 3d 42 2d 49 3c 6d 4b 0e 3d de 8f 19 bd
       0.076139405 0.012278857 0.0347399 -0.037490718
000280 d9 ee 02 bc f2 13 8b bd 50 7e d5 bc 75 b8 3a 3d
       -0.007991516 -0.06790914 -0.026061207 0.04558607
000290 1a f6 9c bd a4 ff ef bd 6d c5 00 bd ea 8d a7 bd
       -0.07664128 -0.117186815 -0.03143828 -0.08181365
0002a0 f9 29 5e 3c 5a 39 8b 3d 49 e3 49 bd 77 14 4b be
       0.013559812 0.06798048 -0.04928902 -0.19832025
0002b0 18 01 d0 bd 71 3e 8a bc 78 f5 44 bd 2b 8c 81 bc
       -0.101564586 -0.016875478 -0.04808566 -0.015813908
0002c0 6d 75 8e 3d 9e c7 81 bd ed 73 2d 3d 88 ac 94 bc
       0.06955991 -0.06336902 0.042346884 -0.018148676
0002d0 7c 7d 9e bd b7 23 46 3d 34 e3 96 3d e1 77 6c 3a
       -0.07738778 0.048373904 0.07367554 0.0009020549
0002e0 04 85 2a 3c 3c e3 38 be 43 08 54 bd db c8 36 bd
       0.01040769 -0.18055433 -0.05176569 -0.044625144
0002f0 b5 76 97 bd 83 1f d4 bd 61 a6 01 be 4d ad d3 bd
       -0.073956884 -0.10357573 -0.12661125 -0.10335789
000300 c8 8c 0c be 12 b0 c2 3c c6 ed 0a bd f8 62 2f bb
       -0.13725579 0.023765597 -0.033918165 -0.002676187
000310 98 03 4b be 32 19 28 be 4c 95 af 3c 76 2b e7 bd
       -0.1982559 -0.16415861 0.021433495 -0.112875864
000320 c7 b9 34 be f7 b8 31 be f9 c6 85 3d d2 ba 31 bd
       -0.17648993 -0.17355715 0.06532092 -0.043391056
000330 38 b1 34 be 7e 58 3c bd 81 6c 38 3c 39 3f 54 bd
       -0.17645729 -0.04598283 0.011256338 -0.051818106
000340 4e 8d 7b bd 0f cd 0d be ed 2f 3c be 55 30 93 bd
       -0.061414056 -0.13847755 -0.18377657 -0.07186953
000350 02 32 94 bd eb 82 0e be 8c 1c 48 be 30 3a 11 be
       -0.07236101 -0.13917129 -0.1954214 -0.14182353
000360 86 4a 87 bd bc 99 f0 bd 0a 13 1d be b4 c9 18 be
       -0.06606011 -0.117480725 -0.15339294 -0.14920694
000370 5e 3c 61 bd 23 c4 89 3b 38 77 86 be 55 36 eb bd
       -0.05498921 0.0042042895 -0.26262832 -0.114849724
000380 35 e3 af bd 50 a3 89 3c bb 04 8d 3c cd f6 8a bd
       -0.08588258 0.016801506 0.01721417 -0.06785355
000390 6a db b5 bd cc 5c c6 3a a8 0c 57 3c 23 9c 80 bd
       -0.088797405 0.0015133857 0.013125576 -0.06279781
0003a0 2d 1e b2 bd 3b 2c 2d 3d 4a db 6a 3c e2 e6 05 3d
       -0.08697162 0.04227851 0.014334509 0.03269089
0003b0 27 6b 67 bd c7 f1 f0 3b ff cd d9 3c 75 8d 8c 3d
       -0.056498673 0.007353041 0.026587484 0.06862918
0003c0 7e 2c 23 3d 3f 1b 86 3c b3 fb f8 bd 1a f3 06 3d
       0.039837353 0.016370414 -0.12157383 0.032946683
0003d0 d8 69 51 3d 31 1f 2a bd 87 70 dd 3b 35 14 89 bd
       0.05112633 -0.041533653 0.006757799 -0.06693307
0003e0 0c 7d 0e 3c 3f 41 bc 3c 40 92 c1 bd 30 e3 f3 bd
       0.008696806 0.02298033 -0.09451723 -0.11908567
0003f0 62 c6 56 3b 28 ac a3 bd 16 a5 13 bd c4 35 80 bd
       0.0032772054 -0.079918206 -0.03604611 -0.06260255

3.bias f4 [16]
000000 2e e5 de be 22 23 ca bd 32 73 b8 bd 1f 44 1d bf
       -0.43534225 -0.09869982 -0.09006347 -0.6143207
000010 5e b6 28 bf d9 4f 77 be 80 28 07 be 4e fd 4f 3e
       -0.6590327 -0.24151553 -0.13199043 0.20311472
000020 8f 75 e9 3d a5 65 bd bc 0c 03 a6 be 0e 78 83 bd
       0.11399376 -0.023119757 -0.324242 -0.06419383
000030 d0 9e 6f 3d ce ee d9 3c 89 09 5b bd 86 b2 54 3c
       0.058501065 0.026603129 -0.05347589 0.012982016

7.weight f4 [120, 400]
000000 73 ba 95 3e 91 1b 47 3e fb 97 38 be 9d f0 47 be
       0.29243812 0.1944411 -0.18026726 -0.1952538
000010 0e 0b 00 be fa 5b 4e 3e c2 80 ad 3e 0e 51 d6 bd
       -0.12504217 0.20152274 0.33887297 -0.10464679
000020 67 df e2 be f1 77 e5 3d 26 a1 49 3e 34 2a e3 3e
       -0.44311067 0.11204518 0.1969038 0.44368136
000030 39 61 f1 3d ce 5d 70 3d cf 11 1c 3e 27 7f 06 3e
       0.11786122 0.05868321 0.15241168 0.13134442
000040 cb 36 c3 3d a6 5e 2e be 53 b3 44 be eb 70 05 3e
       0.09531935 -0.17028293 -0.19209032 0.13031356
000050 25 4d 34 3f ec 1f 4a be dc 02 4f bf 19 74 41 bf
       0.70430213 -0.1973874 -0.8086374 -0.75567776
000060 82 03 ab be 94 0d bc 3d e0 94 e4 3d d1 68 05 3e
       -0.33401114 0.09182277 0.11161208 0.13028266
000070 d4 f4 70 3e 0a 51 07 3e 0d 23 4b 3e 9e 91 27 3e
       0.23530895 0.13214508 0.1983759 0.16364142
000080 31 f5 ab 3c c3 37 d4 3d f7 e5 de 3d c9 42 1a 3e
       0.02099094 0.10362198 0.10883706 0.15064539
000090 5a e5 dd 3d 06 b0 72 3c 4e 00 e3 3d 2d 18 d9 bc
       0.10834761 0.014812475 0.110840425 -0.026500786
0000a0 d3 ca 88 bc ce 8b 69 3d 5a f8 03 3d 78 50 52 3d
       -0.016698277 0.057018094 0.03221927 0.051346272
0000b0 62 fc c9 3c 6d 65 8c ba ab 67 4c 3d 64 91 7a 3d
       0.024656478 -0.001071138 0.049903553 0.06117381
0000c0 cf 08 06 3b 05 c3 8a 3d a3 cf 48 3e bc a3 3e be
       0.0020452028 0.06775478 0.19610457 -0.18617147
0000d0 9a c5 f0 be 99 b7 b3 be 49 c3 91 be aa 9e 6b 3d
       -0.47025758 -0.3510101 -0.28469303 0.05752436
0000e0 ee 95 16 3e e6 ed db be bb fa b2 bd be 2c 0a 3d
       0.14705631 -0.4295494 -0.08739229 0.033734076
0000f0 62 da 30 be 10 de 0b be 72 f5 ac be a3 ed ad be
       -0.17270806 -0.13658929 -0.3378101 -0.33970365
000100 47 f5 f9 be f0 6b dc bc d0 a0 1c bf cf 30 ad bd
       -0.48819944 -0.026906937 -0.6118288 -0.08456575
000110 f8 b1 74 3d 1f 7e 8a 3d 10 a7 81 3f a0 27 c1 3e
       0.059740037 0.06762337 1.0129108 0.37725544
000120 f3 8a 46 be 61 82 68 3e 0f e4 01 3f 30 f5 64 be
       -0.19388942 0.22705986 0.50738615 -0.22359157
000130 91 49 e1 be 30 a3 c5 3d ed 84 83 3e b8 51 d8 3e
       -0.4400144 0.09650266 0.25687352 0.42249846
000140 ca 4e 87 3d 57 45 62 be f2 d6 c4 3e 00 f6 95 be
       0.06606825 -0.22096764 0.3844524 -0.29289246
000150 51 e3 f0 3e ef aa 51 3e 8a 0c 08 be 75 82 44 3e
       0.4704843 0.20475362 -0.13286033 0.1919039
000160 7e 02 90 3e fb a6 6e be c0 32 a0 3d 31 35 be bd
       0.281269 -0.23305885 0.0782218 -0.09287489
000170 3b 09 f7 3e dc 36 2d 3d 65 7a fa bd 5d fd 14 be
       0.4824923 0.042288646 -0.12230376 -0.14549775
000180 2b c4 5c bf 1c bd 0f bf 05 bf 17 3f 20 92 5a 3e
       -0.8623683 -0.56147933 0.5927585 0.21344805
000190 30 a3 04 bf 80 43 02 3e 2c 48 68 be f3 53 9a be
       -0.51811504 0.12721062 -0.22683781 -0.30142173
0001a0 90 7b 09 be 5f 70 b4 bc d9 fc fd be 40 86 7f 3e
       -0.13426042 -0.022026239 -0.4960697 0.24953556
0001b0 9c e2 c9 3e a5 60 f2 bd b7 c4 92 be e5 3d 35 3e
       0.39430702 -0.1183484 -0.28665707 0.17699392
0001c0 4f a1 ac 3e 00 f9 67 3e fb 16 d0 3e df e0 ed 3c
       0.3371682 0.2265358 0.40642533 0.029037891
0001d0 e0 8b 8a 3d c9 9c 2d be ad 23 80 be 2a 83 11 be
       0.0676496 -0.1695434 -0.25027218 -0.14210191
0001e0 cd fd 59 3f 96 bb 59 3f 7b 1f 06 bf 18 ae f4 3e
       0.85152894 0.8505186 -0.52391785 0.47789073
0001f0 20 14 81 be 72 8e a7 be b6 96 11 bf ae fe ce be
       -0.25210667 -0.32725865 -0.5687059 -0.4042868
000200 37 e1 d1 3e 07 03 09 be d9 56 2b be ed c8 20 3e
       0.40992138 -0.13380061 -0.16732349 0.15701647
000210 76 40 4a 3e f5 d7 47 3f 38 9e e5 3e bf 94 e2 be
       0.19751152 0.780639 0.44847274 -0.4425411
000220 32 64 cb 3c 76 7b cd 3c 86 02 cc 3e a3 d8 94 bd
       0.02482805 0.025083285 0.39845675 -0.07267883
000230 79 67 8b 3d ae f0 9d bd 9f 7f 8e 3c 65 a6 87 3e
       0.06806845 -0.07711922 0.017394839 0.26494136
000240 02 a1 0b be 01 69 86 3e 07 be c9 3d b4 61 af 3d
       -0.13635638 0.26251987 0.09850698 0.08563557
000250 21 33 12 be 54 dc 1a be 3b 67 ca 3c 97 98 4b 3e
       -0.14277317 -0.15123111 0.024707427 0.19882427
000260 9d 7c 55 bd d8 79 99 3d 15 38 aa bd 64 8a 89 bc
       -0.052120794 0.07493943 -0.08311478 -0.016789623
000270 31 d2 9a 3d 51 00 0f be 61 07 3d be 7b 63 5f be
       0.07559622 -0.13964964 -0.18459846 -0.21815293
000280 26 6c 21 3f 0c af 52 3d b9 e6 b0 bd e7 df c8 be
       0.63055646 0.05143647 -0.08637757 -0.39233324
000290 30 d7 2b bf ae 1e 47 bf df 15 0a be 71 98 8e 3e
       -0.67125225 -0.7778119 -0.13484906 0.2785068
0002a0 5f da 87 be d5 be 88 3e 8d 75 58 3f a3 7b 11 bf
       -0.2653379 0.26708093 0.8455437 -0.5682928
0002b0 e5 f4 b2 be 37 da f6 be 3f 9e c7 3d 43 7a 9e bd
       -0.34952465 -0.4821336 0.0974698 -0.07738163
0002c0 fd a9 ad 3e 45 3e 88 bf 6f 27 f0 be 78 34 d3 be
       0.33918753 -1.0644003 -0.46905085 -0.41250968
0002d0 d0 39 e5 3e 36 09 a7 3c 5c ce 53 bd e4 ce 80 bf
       0.4477067 0.020390134 -0.05171047 -1.0063138
0002e0 74 36 f7 3c 7a 85 df bd cb 70 ba be e7 a7 83 be
       0.030177332 -0.109141305 -0.3641418 -0.25714037
0002f0 80 c0 36 bf c2 41 db be 9a af 34 3e 1e e9 c1 3e
       -0.7138748 -0.42823607 0.17645112 0.37873167
000300 49 db d5 be 80 2f 0d bf 1d b4 4e 3e 4f a1 3c 3f
       -0.41768864 -0.55150604 0.20185895 0.7368364
000310 b6 b6 ad bd 7e b7 35 bf 00 c0 7d be 43 2d 24 bd
       -0.08482115 -0.7098311 -0.24780273 -0.040082227
000320 e6 2d f5 bc d2 1b 56 3e 25 d5 48 3c 96 d4 3a bf
       -0.029929113 0.2090905 0.012257849 -0.7298063
000330 f1 5f fe be da 0c 27 3e 21 ed 10 3e f3 13 83 bd
       -0.49682572 0.16313496 0.14152957 -0.064002894
000340 f5 f6 95 bf bb a1 59 bf 04 b9 06 bf 88 c8 ed 3e
       -1.171599 -0.85012406 -0.5262606 0.46442056
000350 a9 50 78 be 75 f8 30 be 31 2c 90 be d6 08 2a 3f
       -0.2424952 -0.17282279 -0.28158715 0.6641973
000360 7a 6b b0 3e 76 c3 67 bf 7e 90 44 be 31 bf 53 be
       0.34456998 -0.90532625 -0.19195744 -0.20678402
000370 69 cd d0 be a0 5e 17 be c3 9b 73 be de e9 77 3e
       -0.40781716 -0.1478219 -0.23789887 0.24210307
000380 94 dd b3 bd b4 8d 95 3e 76 ed fc be 2e e2 db be
       -0.08782497 0.29209673 -0.49399918 -0.42946
000390 5a a2 e3 bd ab b2 ad 3e e1 92 f1 3e 95 aa e6 be
       -0.111149505 0.33925375 0.47182372 -0.4505202
0003a0 4b c7 4a be c8 a0 70 be dd e7 31 bd 59 5d 57 be
       -0.19802587 -0.23498833 -0.043434013 -0.21031703
0003b0 e4 da 00 3f 9d 63 14 bf 6e ff b2 bb 9e d5 39 3e
       0.50334 -0.579645 -0.0054625785 0.18147895
0003c0 94 8f bc 3e 7b 2a e3 3e c2 e6 eb be e1 00 a0 be
       0.3682829 0.44368348 -0.46074492 -0.3125067
0003d0 0b 70 52 3e 46 7e 0b 3d e2 73 1c 3e 2b 4d 93 3e
       0.20550554 0.03405597 0.15278581 0.28769812
0003e0 c9 a4 f5 bd 1b e3 0a bf 01 7f 39 3e 44 76 c4 3e
       -0.11994321 -0.54252785 0.18114854 0.3837148
0003f0 79 41 51 3e 82 9a 92 3e c3 c4 ff 3c e5 67 bb 3e
       0.20435132 0.28633505 0.031221753 0.36602703

7.bias f4 [120]
000000 e5 10 03 bd fe 95 32 3e 3c aa fd 3d 6c c9 76 bd
       -0.031998534 0.1744003 0.12385985 -0.060250685
000010 ef c3 9f be 79 80 a3 be 9d 7e 10 bd ac bb 7a be
       -0.31204173 -0.31933954 -0.035276998 -0.24485654
000020 3d dd 85 3b 60 e2 f6 be 8d 41 03 bc 45 8b e7 bd
       0.0040852115 -0.48219585 -0.008011234 -0.113058604
000030 48 92 5c be 0f 28 ac be 58 e7 83 be f2 b7 9b 3d
       -0.21540177 -0.33624312 -0.2576244 0.07603444
000040 ee 32 b0 3e 2d ea f3 bb 91 ab 03 3e a0 95 bd be
       0.34413856 -0.0074436874 0.12858416 -0.37028217
000050 5e 97 23 be 39 6d 7d 3e 15 ea 47 be 8c e1 30 bb
       -0.15975711 0.24748696 -0.19522889 -0.0026989905
000060 38 5c 53 3d 53 b8 96 be 68 c9 6b 3e 43 dd 70 bd
       0.05160162 -0.29437503 0.23026049 -0.05880476
000070 5e be 69 be 90 5b 7f be 22 cb 7a be 37 4c c9 3b
       -0.22826526 -0.24937272 -0.24491552 0.0061431187
000080 d9 67 84 bc 76 e0 48 3e b8 b3 ff bc b6 a3 46 be
       -0.0161628 0.19616875 -0.031213626 -0.19398388
000090 74 97 c7 be d9 91 43 bd 26 ad 75 be 1e 66 22 be
       -0.38982737 -0.047746513 -0.23991832 -0.15859267
0000a0 ee aa ab bd bc 9b 99 3e a4 a1 20 3d 77 24 53 bd
       -0.083822116 0.30001628 0.039216653 -0.051548447
0000b0 f8 82 29 bb 00 10 9d 3d 79 f6 11 bd 85 81 85 bd
       -0.0025865417 0.076690674 -0.035635445 -0.065188445
0000c0 06 b8 33 be a6 2c 85 bd 8e fb fa bd 62 a9 4c bd
       -0.17550668 -0.06502657 -0.122550115 -0.049966224
0000d0 36 32 1b be 82 00 84 bd 5e 62 dd be 08 88 a2 be
       -0.15155873 -0.06445409 -0.4323911 -0.3174441
0000e0 07 00 40 3e 58 db 0b bf c3 e5 bc bd c4 c8 3d be
       0.1875001 -0.54631567 -0.09223511 -0.18533617
0000f0 62 c6 9f be ab 09 87 bd 1b 7a 4b be 41 0a 02 be
       -0.31206042 -0.06593641 -0.19870798 -0.12699224
000100 07 24 7f be 6a 24 71 be 77 48 0c bd 3c 40 9c bc
       -0.24916087 -0.23549047 -0.034248795 -0.019073598
000110 d1 ab d8 3d 53 a1 ba bc 16 5c 4c be b0 33 db 3e
       0.105796464 -0.022782004 -0.19957003 0.42812872
000120 da 20 05 bf 9f 2a d9 be 27 1d f2 3d fa b3 eb 3b
       -0.5200325 -0.4241533 0.118219666 0.0071930857
000130 87 b7 54 3d 59 9e 7d bd 5a 2a 67 3e 1b d7 c0 be
       0.051932838 -0.06191859 0.2257475 -0.37664112
000140 aa 04 a2 bb 62 22 c2 3e 60 34 04 be 9d 00 f2 bd
       -0.0049444037 0.37916857 -0.12910604 -0.11816523
000150 95 85 26 be c5 c9 44 3b 7d 21 14 bf 3a e5 8b bd
       -0.16261895 0.003002749 -0.578636 -0.06830831
000160 e9 ce 32 be 79 2e 53 bd e4 5d 08 bd 81 dc 33 be
       -0.17461742 -0.05155799 -0.033292666 -0.17564584
000170 79 48 15 3e df fb f2 bd ac d9 8b be 22 af 18 be
       0.14578427 -0.11864447 -0.27314508 -0.14910558
000180 69 a5 56 bd 0c 9d 8c bb d3 8f 05 bd f0 a9 76 bd
       -0.05240384 -0.0042911824 -0.032607865 -0.06022066
000190 48 c1 91 3e 4d 56 ae 3e 68 b6 1f bd 7c a7 af be
       0.28467774 0.34050217 -0.038992316 -0.34307468
0001a0 5f 91 3f be 00 5b 88 bc 80 fe 1c 3e 43 b1 da bc
       -0.18707798 -0.016644955 0.15331459 -0.026695853
0001b0 27 bd c4 bd 5a 61 e1 3d 50 2d a3 bd 0d 32 32 bd
       -0.096063904 0.110048965 -0.07967627 -0.043504763
0001c0 46 12 84 bd ef 52 d5 3e 4f 5a 0e 3c fd 63 14 be
       -0.06448798 0.41664836 0.008688523 -0.14491268
0001d0 98 af 04 3b 43 aa 8b be a5 e8 86 be 93 68 7a 3e
       0.0020246264 -0.27278337 -0.2634937 0.24453954

9.weight f4 [84, 120]
000000 9f 34 a6 3e f1 75 53 be 29 d0 8c be 21 1f 07 bd
       0.32462022 -0.2065046 -0.27502564 -0.03298867
000010 0e f9 23 3f ca 52 54 be 56 47 c8 bd 7e cb c0 3d
       0.640519 -0.20734707 -0.09779231 0.09413813
000020 50 28 fb bb e8 07 06 3e 09 54 b7 bd 2f dc 12 3e
       -0.0076647177 0.13088953 -0.08951575 0.14341806
000030 a6 b3 e3 3d b2 da ea be c5 5e bb be a3 0a e1 bd
       0.111182496 -0.45869976 -0.3659574 -0.10988357
000040 c4 0f 48 3e 50 08 7f 3d c5 1b 66 be 35 7d 1e 3f
       0.19537264 0.062263787 -0.2247153 0.619098
000050 aa 0c 66 3e 32 43 0e be 14 5c 42 be 50 d9 c9 bc
       0.22465768 -0.1389282 -0.18980438 -0.024639755
000060 75 26 89 3e 03 35 b3 3e fb cf 90 3d 74 81 9b bc
       0.26787153 0.35001382 0.07070919 -0.018982626
000070 77 20 31 bf 54 de 31 bf a0 f6 4b be a4 6c 95 3e
       -0.6919016 -0.6947987 -0.19918299 0.2918445
000080 e9 ec 76 3d 2f 1d 78 be 44 57 64 3d 69 4b 4e 3e
       0.06028453 -0.24229883 0.055747285 0.20145954
000090 2e a8 e5 be 04 2d db 3c 8b f1 df 3d 78 eb f7 3e
       -0.44854873 0.026754864 0.109347425 0.48421836
0000a0 57 bd ab be 2f 72 07 3e 11 f8 31 3e a0 0b 5a bd
       -0.33542892 0.13227151 0.17379786 -0.053233743
0000b0 e2 69 65 bd 61 99 08 be d1 9c a6 bc 20 48 95 3b
       -0.05600918 -0.1333976 -0.020338448 0.004555717
0000c0 cc e4 1a 3e 00 2a 41 3c be 74 a9 be cc c8 9d bd
       0.15126342 0.011789799 -0.3309688 -0.077043146
0000d0 e6 87 1d 3d ac 52 45 3d 51 78 2d bf 21 04 51 bd
       0.03845968 0.048174545 -0.67761713 -0.05102933
0000e0 37 cb 33 3d 36 b7 d6 bd bc 15 17 3d 89 76 4d be
       0.043894973 -0.104841635 0.036885962 -0.20064749
0000f0 68 ca d5 be 18 27 8c bc 26 c0 01 bf 95 05 a3 3c
       -0.41755986 -0.017108485 -0.5068382 0.019900123
000100 11 76 85 bd 6b 45 7a 3e 47 f4 fb 3e fa 32 47 bd
       -0.0651666 0.24440543 0.49209806 -0.0486326
000110 4b 5c ae 3c b4 8f 92 3c 8f 7d 4b bc 94 2e 92 be
       0.021284243 0.017890789 -0.012420072 -0.2855116
000120 3a 29 b9 3e 5f 78 3e be ce d2 97 be ae 5f 1d bf
       0.36164266 -0.18600605 -0.2965302 -0.6147412
000130 c6 c2 ed be 78 97 65 bd 64 49 24 3e a6 da 86 3e
       -0.46437663 -0.056052655 0.16043621 0.2633869
000140 46 20 c8 3e 1c 31 d1 3d 04 af 41 3c f7 d4 b5 3d
       0.39087123 0.10214445 0.011821512 0.088785104
000150 71 c6 ce 3d 35 99 c8 bd e0 62 98 3e f8 87 00 3c
       0.100964434 -0.09794847 0.29762936 0.0078449175
000160 1f c1 41 3d d3 9e f7 bd bc fa 81 3c d3 2e bb 3d
       0.047303315 -0.1209084 0.01586663 0.091397904
000170 51 6f 49 3d 65 9c 2f 3d 06 f9 49 bf 7a 9f fb 3c
       0.049178425 0.04287376 -0.78895605 0.030715693
000180 82 8e a5 3d 3c 7f 1c 3d e4 e5 7c 3d 3b 26 82 bd
       0.08083822 0.038207278 0.06174268 -0.06354948
000190 fb 6f 6f bd fd 15 56 3e b3 d3 e7 be 78 90 b1 3c
       -0.058456402 0.20906825 -0.452787 0.021675333
0001a0 41 c2 69 be 4e 36 97 bd 9d 5c c0 be 80 85 4e bb
       -0.22828008 -0.07383405 -0.37570658 -0.0031512678
0001b0 ed 98 12 bf 78 ae 15 3f a6 73 90 bd 46 70 ac 3d
       -0.57264596 0.58469343 -0.07053308 0.08419852
0001c0 ec dd 9d 3d 7e 34 22 be cb a8 81 3d 31 31 9b be
       0.07708344 -0.15840337 0.06331023 -0.30310968
0001d0 a2 b3 26 bd a6 fb 0a bc d8 53 71 3e cb 4b 25 3f
       -0.040698655 -0.008482849 0.2356714 0.64568776
0001e0 2c a4 4f bf d1 e4 56 be a9 0f a1 be 09 e8 cd 3e
       -0.8110988 -0.20985724 -0.3145726 0.4021609
0001f0 2d dd ba 3d 9e 1b 97 be b4 65 42 bf a3 bc c5 3d
       0.09124217 -0.29513258 -0.75936437 0.0965512
000200 70 2e af 3d e1 ce b2 be 3c d5 da 3c a6 6f 17 bf
       0.08553779 -0.3492346 0.026713006 -0.59154737
000210 2e d2 b4 be 0a 13 72 bf 2b 98 88 be db d3 14 be
       -0.35316604 -0.945603 -0.26678595 -0.14533941
000220 88 f6 ff bd 64 d9 f0 3a 50 ed 17 3e 44 37 4d be
       -0.12498194 0.0018375334 0.14836621 -0.20040613
000230 0e 38 35 be ca 89 bb be f6 c2 11 bb ed ba 1a 3f
       -0.17697164 -0.36628562 -0.002224145 0.60441476
000240 da 00 b3 be 81 49 fe be 04 5f 97 be e3 d2 44 3d
       -0.34961587 -0.49665454 -0.2956468 0.04805268
000250 bf c1 d0 be 21 ad 15 bf c2 36 e3 be f2 1b ab be
       -0.40772817 -0.584673 -0.44377714 -0.33419758
000260 ac fa 20 bd 28 fe 19 3e c9 e8 0e 3d 01 65 d2 be
       -0.03930156 0.15038359 0.03488997 -0.41092685
000270 66 b0 c5 3e e0 75 03 3d f8 55 9a be a9 9c 32 be
       0.38611144 0.032094836 -0.30143714 -0.17442574
000280 29 53 4c 3e 41 e2 30 be d4 af 91 3e 34 65 40 3d
       0.19953598 -0.17273809 0.2845446 0.046971515
000290 a2 3b 7b bd 95 98 38 bf 51 81 1e 3e 57 6e 01 bd
       -0.061336167 -0.7210782 0.15479018 -0.03159937
0002a0 25 9c 80 3e ac 22 55 3d a6 a9 ed be ea 65 03 bd
       0.2511913 0.05203502 -0.46418494 -0.032079615
0002b0 4f cb f1 be e0 45 13 3b ec ab 74 be ce 93 a7 3e
       -0.47225425 0.0022472069 -0.23893708 0.32729954
0002c0 d4 aa 7d be d8 df 98 3e 19 8a 50 3f 9a 63 13 bd
       -0.24772197 0.2985828 0.8146072 -0.03598366
0002d0 f2 15 f9 bd 25 5a 2a 3d 95 8e 9e be e0 07 31 bd
       -0.12162389 0.041589875 -0.30968156 -0.0432204
0002e0 f6 3e 80 be fa f5 7c 3c bc b3 e5 bc 77 c9 c6 3d
       -0.25048035 0.015439505 -0.028039806 0.09706395
0002f0 6c b1 1a 3e f6 3c 65 3d d0 a0 88 3e 8a 2e dc be
       0.15106744 0.05596634 0.2668519 -0.43004256
000300 e2 18 c3 bd 2a 8a ae be 8f d2 aa be a0 b1 a0 3e
       -0.095262304 -0.34089786 -0.33363768 0.31385517
000310 db a3 80 be 94 79 86 3d 26 fc 70 3e 72 07 05 be
       -0.25125012 0.06566158 0.23533687 -0.12991121
000320 92 6e dd be ff 36 88 3e 0e 15 7f 3d 84 e0 84 3e
       -0.4324842 0.2660446 0.06227594 0.25952542
000330 12 31 af 3e db 25 bd be 64 fa 85 3e c0 71 8b 3b
       0.34217125 -0.36942944 0.26167595 0.0042555034
000340 c4 af 44 be 26 a3 e2 3d 48 dc 39 3c e3 90 8b 3d
       -0.19207674 0.11066274 0.011344023 0.06814744
000350 bc 57 e4 be 1e 13 37 3d ee 6b f9 3e 91 62 fb be
       -0.44598186 0.044695966 0.48715156 -0.49098638
000360 47 60 9c 3d 37 2e 99 3c 15 68 3e bc 5d 04 b6 bd
       0.07635551 0.018698795 -0.011621495 -0.08887551
000370 6c 6c a5 be 08 e6 2e be db 22 81 3e 5c a9 cc be
       -0.32309282 -0.17079937 0.25221905 -0.3997296
000380 d6 24 29 be d7 2a 82 bd 98 61 93 be 6d 76 de bc
       -0.16517958 -0.06355827 -0.28785396 -0.02715608
000390 62 63 18 bf 0d 85 70 be 18 7f 27 3c 14 3e 3c bd
       -0.59526646 -0.23488255 0.010223173 -0.04595764
0003a0 86 da df bd d1 86 02 3e 20 38 72 be 21 48 19 bd
       -0.10930352 0.12746741 -0.23654222 -0.037422303
0003b0 76 2c 80 bd 9f 60 1f 3e 41 53 1c 3d ea 02 f4 be
       -0.0625848 0.15564202 0.038165335 -0.47658473
0003c0 76 d7 92 3e 58 0d f9 be cf 2c 45 be ff 8e d3 be
       0.2868001 -0.48642993 -0.19255374 -0.41320035
0003d0 25 3f 5f 3e 70 59 af be 9d 82 07 bf e0 a5 9d 3e
       0.21801431 -0.34247923 -0.52933675 0.30790615
0003e0 9b 1a 4f bd 3f ff e0 3d c3 33 07 3d 12 19 90 3e
       -0.050562482 0.10986184 0.03300835 0.28144127
0003f0 b0 4b 28 be 09 f9 8a bd d7 27 78 bf f7 fe 06 be
       -0.16435122 -0.06785781 -0.9693579 -0.13183199

9.bias f4 [84]
000000 63 3c ca be 53 b9 ea be e2 74 eb bd d6 ef b1 be
       -0.39499196 -0.45844516 -0.11496903 -0.34753293
000010 c4 c2 73 be bb 95 14 3e bf 4a 3f 3e 32 1f df bd
       -0.23804766 0.14510243 0.18680857 -0.10894622
000020 2d 49 b6 bd c2 a4 6b 3e cb 0f 46 be e7 93 ff bd
       -0.08900676 0.23012069 -0.19341962 -0.12479382
000030 ae 5e 0d be c5 a9 11 3f 09 aa 41 be 02 dc b0 be
       -0.13805649 0.5689967 -0.1891252 -0.34542853
000040 75 41 50 bc 53 eb 7b 3e 40 5e 9d 3d de 5c c3 be
       -0.012710919 0.24601488 0.076839924 -0.3815679
000050 43 ed 63 be 41 4e 8a be 01 87 ce bb 1f 42 f2 be
       -0.22258477 -0.27012828 -0.006302715 -0.4731607
000060 c9 ae 48 be af b4 8e 3d d4 69 a3 3e 01 56 bc bd
       -0.19597925 0.069680564 0.31916678 -0.091960914
000070 78 95 3f be c2 44 3d be 41 ae 2f bd d8 0b 41 be
       -0.18709362 -0.1848326 -0.04289079 -0.18852174
000080 21 e1 c0 3d c2 3f b1 3d cb 24 47 bd 12 59 86 be
       0.0941794 0.08654739 -0.048619073 -0.2623983
000090 d7 6f 91 be 80 25 57 3d 08 d3 ca be c6 1a fd be
       -0.2840564 0.052525997 -0.3961413 -0.4943449
0000a0 35 a9 73 be 22 6b 42 be 43 cc ba be b6 5b 61 be
       -0.23795016 -0.1898618 -0.36483964 -0.22007641
0000b0 52 d2 9a bd 88 25 b8 3d 50 9c 2e bf 89 ea aa be
       -0.07559647 0.089915335 -0.68207264 -0.3338206
0000c0 ac 58 ce be eb 6a 05 bf ac c0 2f be 86 d3 98 3d
       -0.40302026 -0.5211627 -0.17163342 0.0746222
0000d0 30 a7 0b bf 9d 0d 9d be d5 ad 0a bd 40 b5 fb be
       -0.5455198 -0.3067445 -0.033857185 -0.4916172
0000e0 26 85 a0 3d 4a fe 5d be 8b f6 fb be 53 d0 7a bd
       0.07837896 -0.21679035 -0.49211535 -0.06123383
0000f0 27 eb b7 bd 71 96 5f be 3f 6f a6 be 59 81 ee be
       -0.089803986 -0.21834733 -0.3250675 -0.4658306
000100 d9 33 98 3e 9e 1f 82 bd 73 45 17 be 7c b4 88 3d
       0.29727057 -0.06353687 -0.14772587 0.0667505
000110 d2 55 eb be 72 b2 2a 3d dc 19 c7 be c3 62 0a b9
       -0.45963913 0.041674085 -0.38886917 -0.00013197497
000120 77 d7 c4 bd e0 c3 80 be 25 94 81 be 64 6c 92 3e
       -0.09611409 -0.2514944 -0.25308338 0.2859832
000130 d0 1e 52 bd 33 33 0b 3c c6 d1 ed be f8 8b 4d be
       -0.051298916 0.008496094 -0.46449107 -0.20072925
000140 6c a9 f7 bd 1f 66 1f be 0e 4a 06 be a8 42 09 bf
       -0.120928615 -0.155663 -0.13114187 -0.53617334

11.weight f4 [10, 84]
000000 f7 4b de be d6 3b d4 bf b9 27 f7 be ee 31 02 3e
       -0.43417332 -1.658076 -0.48272493 0.12714359
000010 bb 4e 51 bf d5 0e 94 be 76 e2 b4 3d 49 5a cd bd
       -0.8176076 -0.28917566 0.088322565 -0.10026986
000020 bb b4 55 bf a3 35 23 bf 0d 62 7b bf d1 91 20 3e
       -0.834789 -0.6375372 -0.9819649 0.15680625
000030 1f 7e 4f 3e b1 92 20 bd 08 9f 11 bf 33 a1 81 be
       0.20262955 -0.039202396 -0.5688329 -0.25318298
000040 99 48 ad bd 72 3c 17 bf 87 44 ae 3d 58 0e 49 3d
       -0.084611125 -0.5907661 0.08509164 0.049085945
000050 db 89 e1 3d 1f 58 12 3e 35 e9 2e be 33 f9 9a 3e
       0.11012622 0.14291428 -0.17081149 0.3026825
000060 17 1e 3f 3c bf b2 69 bf e5 48 1d be a1 80 c7 3d
       0.011664889 -0.9128837 -0.15359838 0.09741331
000070 37 b4 74 bf 9b 46 f6 be eb 97 4c bf 3e 7e a3 3d
       -0.95587486 -0.48100743 -0.7991931 0.07983063
000080 08 93 9a bf b8 78 76 3e 9c 5e a2 be af 97 84 3e
       -1.207612 0.24069488 -0.31712806 0.25896975
000090 22 61 ea bd f0 0c 01 be a6 dd 11 3e b1 61 1c bf
       -0.11444308 -0.12602592 0.14244708 -0.61086565
0000a0 62 9b a2 be cc 1a 35 bf 45 82 41 3e e8 b1 a8 bd
       -0.31759173 -0.70744014 0.1889735 -0.08237058
0000b0 2c e5 8f be 86 58 02 bf 17 88 53 bf 4d ea 06 bf
       -0.28104532 -0.50916326 -0.8262953 -0.52701265
0000c0 e3 0b 49 3e 16 64 b2 be ae e1 98 bf b6 e6 05 bf
       0.1963344 -0.34841985 -1.1943872 -0.5230516
0000d0 e0 fe ad be 96 9d de bd 5a af 43 bd a3 c8 0f bf
       -0.33983517 -0.10869901 -0.04777465 -0.5616552
0000e0 56 55 13 bf 63 ce 0e 3e ec a7 4e bf 1e 7f 2c bf
       -0.5755209 0.13945918 -0.8072498 -0.67381465
0000f0 f8 ca 28 be df b4 94 3d 88 a2 ef b9 d0 d5 88 bf
       -0.16483676 0.07261061 -0.00045706728 -1.069025
000100 cf 1a 36 bf d6 d0 08 bf b1 a1 07 bf 57 67 84 be
       -0.71134657 -0.5344366 -0.52981097 -0.25860092
000110 f9 e3 9d be 87 76 ba be 38 b5 fd be da e3 be be
       -0.30837992 -0.36418554 -0.4955232 -0.37283212
000120 8f 6f 85 3e 32 a7 3e be b7 7c 75 bf 12 00 e3 be
       0.26061675 -0.18618467 -0.95893425 -0.4433599
000130 01 30 3e bf de d2 44 bf 10 3b bb 3d 3e 87 33 bf
       -0.74292 -0.7688426 0.09142125 -0.7012824
000140 a5 52 8f 3e 90 62 8b 3c 9a b4 a1 bc 71 e2 41 bf
       0.2799274 0.017014772 -0.019739438 -0.7573615
000150 fe c7 aa 3a 08 5b e2 be dd 7f a7 3e ee 8c 67 be
       0.0013029573 -0.44210076 0.3271474 -0.22612354
000160 fb 7d 13 be 5a 87 83 bf 26 31 0e bf cf 01 67 bd
       -0.14403526 -1.0275681 -0.55543745 -0.05639821
000170 13 c6 1c bf e9 bb b7 bc dd 54 7c bd a3 c8 6d bf
       -0.6123974 -0.02242847 -0.06160437 -0.9288427
000180 e8 6d c0 3d b5 67 2f 3d 38 aa 03 3b fa fa 7e bf
       0.09395963 0.042823512 0.0020090472 -0.9960171
000190 a5 0e 57 bd e2 13 03 bf 5e ff 8c be 20 60 e4 3c
       -0.0525042 -0.51202214 -0.2753858 0.027877867
0001a0 af ba 22 bf f7 bd e7 3d 1b 85 b8 be 00 54 f0 3d
       -0.63566107 0.1131553 -0.3603905 0.11734772
0001b0 18 38 a7 be f7 da 71 be d3 8f 18 3c 9f 4b 01 bf
       -0.32659984 -0.23618685 0.009311634 -0.50506014
0001c0 c9 de 17 bf fe 9a 03 3e 32 3a 46 bf 31 33 38 be
       -0.5932432 0.12852094 -0.7743255 -0.17988278
0001d0 ec 17 00 be a9 32 ef be 3c 48 81 be ca 7f 42 be
       -0.12509125 -0.46718338 -0.25250423 -0.1899406
0001e0 f6 8f 76 3e 1e ea 32 be 04 b7 17 bf 7f 4d 08 3f
       0.24078354 -0.17472121 -0.59263635 0.5324325
0001f0 54 be e2 3d ee c7 1e 3e 6e af 54 bf fe f6 4e bf
       0.110714585 0.15505955 -0.83080184 -0.8084563
000200 52 ce 74 bf 02 70 ce be bc 0d b7 bd 9e 6e 74 3e
       -0.9562732 -0.4031983 -0.089381665 0.23870322
000210 44 9e b8 3d ee 5d 22 bf 91 9e d2 be d8 71 44 3e
       0.09014562 -0.63424575 -0.41136602 0.19184053
000220 f3 59 02 bf 6b ff c0 3d e3 76 8e bf 95 6f 3d bf
       -0.509185 0.09423717 -1.1130031 -0.73998386
000230 50 12 8f be cd eb 88 bf 71 51 73 3e 97 d1 da be
       -0.2794366 -1.0696961 0.23761536 -0.4273803
000240 5c e9 2e bf ce 9c 94 3e 72 6a 83 bf 5a 95 68 bf
       -0.6832483 0.29025882 -1.026686 -0.9085289
000250 70 a9 7d 3e 96 d6 dd bd 9f a0 81 be 7e 12 2b bf
       0.24771667 -0.10831945 -0.25317857 -0.6682509
000260 71 e7 1c 3e 24 7c e4 3d d9 87 99 be 60 7d 18 bf
       0.15322663 0.111564904 -0.29986456 -0.5956631
000270 52 e1 56 bf d5 95 12 bf a1 00 38 3e 14 6c de 3b
       -0.8393756 -0.57259876 0.1796899 0.0067877863
000280 78 48 0d bf c6 12 2a 3e 5c cd fc be b3 ef 13 3d
       -0.55188704 0.16608724 -0.49375427 0.036117267
000290 ea a7 3b bf 39 77 a3 3c 7c 78 12 be 86 e6 2f bc
       -0.7330309 0.01995431 -0.14303774 -0.010736113
0002a0 46 d8 1d bf c4 63 2f c0 5b 89 4f bf b6 2c 83 3d
       -0.6165813 -2.7404642 -0.8106896 0.06405012
0002b0 8c 18 cb 3e 6e 42 20 bf 9d 2c 2b 3d 4b ec f1 bd
       0.39667165 -0.62601364 0.041790593 -0.118126474
0002c0 b9 94 cb be 61 e6 0c 3a 72 ca ea be 67 81 aa bc
       -0.39761904 0.00053749053 -0.4585758 -0.020813657
0002d0 f2 50 80 3e e9 dd 4d bf 4a 3c c2 3b a7 2d bf 3e
       0.25061756 -0.80416733 0.005927597 0.37339517
0002e0 6d 5a b5 3d ef ba 1a 3d a9 05 4a bf a9 54 68 bd
       0.08855138 0.03777593 -0.78914887 -0.056721363
0002f0 4b dc 9c bf ef 78 18 be 38 1c fb be 8c 0d 34 be
       -1.2254728 -0.14889883 -0.49044967 -0.17583293
000300 5c 49 34 be f6 81 1f bf 66 93 a0 be c5 5b 66 be
       -0.1760611 -0.6230768 -0.31362456 -0.22495945
000310 e8 7b d5 3d c8 5d d2 3d 2d 80 1e 3d 24 77 42 3d
       0.10424024 0.102717936 0.038696457 0.047476903
000320 6c 1e 64 bf 5a 94 c7 3d 40 ff fc 3d fd a7 99 3d
       -0.8910892 0.09745093 0.123533726 0.07502744
000330 69 32 70 be 15 f5 1f be 7b 4f 3a bf 4a 0c 94 be
       -0.2345673 -0.15620835 -0.7277753 -0.28915626
000340 96 2b 15 3e c1 e5 7c 3e 6a 9e 3e bf 76 24 73 bd
       0.14567408 0.24697019 -0.7446047 -0.059360944
000350 50 6f b5 be 1b 2b 4f bf 09 46 c7 bd 0d cc 6c bd
       -0.35436487 -0.8092515 -0.09730155 -0.057811785
000360 8b 85 42 bd c9 24 e0 be 54 67 b4 be f0 33 96 bf
       -0.047490638 -0.43778065 -0.35235083 -1.17346
000370 30 ad ba 3d 17 28 a7 3d b8 10 91 be 41 07 bf 3d
       0.09115064 0.081619434 -0.28333068 0.093275554
000380 f7 91 a5 bd 25 62 b8 3d 79 40 ec 3d ee 1b da 3d
       -0.08084481 0.090030946 0.11535735 0.106498584
000390 7c 34 78 be 65 1e 2e bf ef 95 a0 be b1 4e 04 3d
       -0.24238771 -0.6801513 -0.3136439 0.03230161
0003a0 05 d8 68 be 0d b3 68 3e dd d2 3f bf a0 b2 6b 3c
       -0.22738655 0.22724552 -0.74931127 0.014385849
0003b0 bd 96 a1 be 8e 5f 09 bf 21 24 d3 be 10 96 f4 3d
       -0.31560317 -0.5366143 -0.41238502 0.11942685
0003c0 c9 23 c5 be 38 d5 8a 3e 93 17 58 bf 91 08 71 bf
       -0.38503864 0.27115798 -0.8441097 -0.94153696
0003d0 45 4c 3f bd 07 7e 0b 3d d6 5b 2c 3e 61 c1 e2 3d
       -0.046703596 0.034055736 0.16831908 0.1107204
0003e0 74 5b a9 bd 9e 31 cb bd d6 f2 19 bd 95 63 83 bd
       -0.082693964 -0.09921573 -0.037585102 -0.06415478
0003f0 7d 43 ea bd 0e af 22 bf 09 82 ca bf c5 a5 76 3d
       -0.114386536 -0.6354836 -1.5820934 0.060216684

11.bias f4 [10]
000000 dd 06 5e be fe 00 a6 be 15 65 90 be c6 41 37 3e
       -0.21682306 -0.32422632 -0.2820212 0.17896184
000010 8d ca cd bb 9e 96 ff bd fc e2 47 be de 1f bb be
       -0.0062802495 -0.124799 -0.19520181 -0.3654775
000020 9c 0d 4e 3f 60 d6 e6 3d
       0.80489516 0.112713575
