digit_recognition/classifier/lenet.pth (torch, 249799 bytes, 10 tensors)

0.weight f4 [6, 1, 5, 5]
0	0xbf126731	-0.5718871
1	0xbebd5839	-0.3698137
2	0xbc1965c8	-0.009362645
3	0x3efbc48f	0.491734
4	0x3e271f45	0.16320522
5	0xbf663ade	-0.89933574
6	0xbdb2ea36	-0.087360784
7	0x3f09e006	0.5385746
8	0x3ef92bd1	0.48666242
9	0x3f03d870	0.5150213
10	0xbf26441b	-0.6494767
11	0x3e9ecd90	0.31016207
12	0x3f26570d	0.6497658
13	0x3f0d79c7	0.5526394
14	0x3e7b9e82	0.24572185
15	0xbe6075b6	-0.21919903
16	0x3d1227aa	0.035682358
17	0x3e1444ae	0.14479324
18	0x3e0efb17	0.1396297
19	0xbe3ab4ce	-0.18233034
20	0xbd966a46	-0.07344489
21	0xbe9631b1	-0.29334787
22	0xbe064a6f	-0.13114332
23	0xbd83d540	-0.064371586
24	0xbe57406b	-0.21020667
25	0xbb990039	-0.004669216
26	0x3d1429e1	0.03617275
27	0xbd582513	-0.05276973
28	0xbbab0c34	-0.0052199606
29	0x3aedbcfd	0.0018137988
30	0xbd87a1a3	-0.06622627
31	0xbd1ce2e6	-0.038302325
32	0xbe71bf51	-0.23608138
33	0xbdb5f130	-0.088838935
34	0xbdbb2874	-0.09138575
35	0x3e2f2672	0.1710451
36	0x3ea8b2d4	0.32948935
37	0x3e0bc77e	0.13650319
38	0x3cb9714c	0.022637032
39	0xbe80f51b	-0.25187
40	0xbe97bfcd	-0.2963852
41	0x3ea0b8d3	0.3139101
42	0x3ed6e4da	0.41971475
43	0x3eb663da	0.35623056
44	0xbe264c6f	-0.16240095
45	0xbf0dc9d4	-0.5538609
46	0xbcd1f514	-0.025629558
47	0x3b38aa17	0.0028177553
48	0x3da70ae2	0.081563726
49	0xbde6b514	-0.11265007
50	0xbe7940da	-0.24341145
51	0xbe0c0e94	-0.13677436
52	0xbf025dfc	-0.5092466
53	0xbeffec09	-0.49984768
54	0xbeb30ecb	-0.34972224
55	0x3d952cf5	0.072839655
56	0xbea93a94	-0.33052504
57	0xbec3fd2b	-0.3827909
58	0xbb8db9bc	-0.00432512
59	0xbe5eeeea	-0.21770826
60	0xbcca58fc	-0.024700634
61	0x3eb1fc77	0.34762928
62	0x3ef37200	0.47547913
63	0x3f050db9	0.51974064
64	0x3ed88f66	0.42296904
65	0x3e7cb61a	0.24678841
66	0x3e89d072	0.26916844
67	0x3e677cf0	0.22606254
68	0x3f165120	0.58717537
69	0x3eb6866e	0.35649437
70	0xbe24d576	-0.16097054
71	0xbe0aa0a1	-0.13537838
72	0x3b824615	0.0039756396
73	0x3debf29a	0.11520882
74	0x3d2aae82	0.04167033
75	0x3e1c40c1	0.15259077
76	0x3e84c2d0	0.2592988
77	0xbd847250	-0.06467116
78	0x3db77be4	0.08959177
79	0xbdd35c81	-0.10320378
80	0x3d902702	0.0703869
81	0xbdd2f4a4	-0.10300568
82	0xbbc2c7aa	-0.005944212
83	0x3e7b7eea	0.24560133
84	0x3e1e086f	0.15432905
85	0xbe1c7ac0	-0.152812
86	0xbebf25bf	-0.37333485
87	0xbd46dc4b	-0.04854993
88	0x3da33b1d	0.07970259
89	0xbdcd97fb	-0.100387536
90	0xbf189ed1	-0.59617335
91	0xbeddcf10	-0.4332204
92	0x3e1d7854	0.15377933
93	0x3f293224	0.66092134
94	0x3dbe5a56	0.09294574
95	0xbe88892f	-0.26667163
96	0x3e798c3c	0.24369901
97	0x3f03d686	0.5149921
98	0x3f049b52	0.517995
99	0x3debf37b	0.115210496
100	0x3cb54410	0.022127181
101	0xbd0ae79a	-0.03391228
102	0x3e679e04	0.22618872
103	0x3ea4123f	0.3204517
104	0x3d1f9824	0.038963452
105	0x3e263943	0.16232781
106	0x3dd19ef5	0.10235397
107	0x3e36aed0	0.17840123
108	0x3eed9dd5	0.4640948
109	0xbd1f68a2	-0.038918145
110	0x3e2a8492	0.16652134
111	0x3eeb38a9	0.45941666
112	0x3eec9b4f	0.4621224
113	0x3ec665b8	0.3874948
114	0xbd928d6b	-0.071558796
115	0xbe32beba	-0.17455569
116	0xbde67de6	-0.11254482
117	0xbebfe494	-0.3747908
118	0xbc14517e	-0.009052632
119	0xbeb37f40	-0.35058022
120	0xbe83a455	-0.25711313
121	0xbf115496	-0.5676969
122	0xbf0a7237	-0.5408053
123	0xbd12e729	-0.035864983
124	0xbe251842	-0.16122535
125	0xbd82bb3d	-0.06383369
126	0xbe1e8314	-0.1547969
127	0xbe5043db	-0.20338385
128	0xbda8fd70	-0.08251464
129	0xbe31b01c	-0.17352337
130	0xbe8def70	-0.2772174
131	0xbe8ec525	-0.27884784
132	0xbeb70975	-0.35749403
133	0xbdf6b41a	-0.120460704
134	0xbde7b29f	-0.11313366
135	0x3eb1f56c	0.34757555
136	0x3f077d57	0.5292563
137	0x3e353c46	0.17698774
138	0xbe85730b	-0.26064333
139	0xbf019a43	-0.5062601
140	0x3f1cfff4	0.61328053
141	0x3f56899c	0.83803725
142	0x3f0c3a85	0.54776794
143	0x3c01a03f	0.007911741
144	0xbea94b5e	-0.33065313
145	0x3cee0c62	0.029058639
146	0x3e9195f4	0.28434718
147	0x3e81d879	0.25360468
148	0xbaca14cd	-0.0015417576
149	0x3e03ad55	0.1285909

0.bias f4 [6]
0	0xbc89041f	-0.016725598
1	0xbc65a589	-0.014016517
2	0x3e40674c	0.18789405
3	0xbea506c4	-0.32231724
4	0xbc57448f	-0.013138904
5	0x3e08eb31	0.13370968

3.weight f4 [16, 6, 5, 5]
0	0xbcac0743	-0.020999556
1	0xbd9bcc38	-0.07607311
2	0xbd526bd9	-0.051372383
3	0x3cc28a2a	0.023747522
4	0x3d9214e8	0.07132894
5	0xbd1fe134	-0.03903313
6	0xbb26a9e3	-0.002543085
7	0xbd9089ea	-0.07057555
8	0xbdb31e2b	-0.087459885
9	0xbd3b1a27	-0.045679238
10	0xbe3f74fa	-0.18696967
11	0xbb83a001	-0.0040168767
12	0xbd1b7229	-0.03795067
13	0xbe0eb5ac	-0.1393649
14	0xbe5016eb	-0.20321243
15	0xbaff3253	-0.0019469954
16	0x3d7ac236	0.06122037
17	0x3cb27c66	0.021787833
18	0xbb455598	-0.0030110832
19	0x3c9bf52c	0.019037805
20	0x3dd3bb64	0.10338476
21	0xbe7d33cf	-0.24726795
22	0xbda785a7	-0.08179789
23	0xbd14550d	-0.036213923
24	0xbdb092bf	-0.086217396
25	0x3d8579b4	0.06517354
26	0x3da9d516	0.08292596
27	0x3dc8954f	0.09794103
28	0x3dc3c2f5	0.095586695
29	0xbd2bfc20	-0.041988492
30	0xbe0e6773	-0.1390665
31	0xbd821c48	-0.063530505
32	0x3cee1e40	0.029067159
33	0xbe4003b3	-0.18751411
34	0xbe30d6d2	-0.17269447
35	0x3c8090d9	0.015694069
36	0x3dab2ba3	0.083579324
37	0x3e7749eb	0.24149291
38	0x3e2558a0	0.16147089
39	0x3cbcbe5c	0.02303999
40	0xbda27759	-0.0793292
41	0xbdf77512	-0.12082876
42	0xbe7acfdf	-0.24493359
43	0xbd483e5a	-0.048887588
44	0xbc7f2d52	-0.01557477
45	0xbd89cbc9	-0.06728322
46	0x3db559a4	0.08854988
47	0x3d9df65c	0.07713005
48	0xbda90845	-0.082535304
49	0xbd921742	-0.07133342
50	0x3dee2421	0.11627985
51	0x3e327fd3	0.17431574
52	0x3bec3dbc	0.0072095077
53	0x3d441d2e	0.04787939
54	0xbbe8f442	-0.007109196
55	0x3d9654f9	0.07340426
56	0xbc2dda2c	-0.010611098
57	0xbe33ceb5	-0.17559321
58	0xbe636f2a	-0.22210374
59	0xbe5de30c	-0.21668643
60	0xbdff5743	-0.12467816
61	0x3d44bae7	0.048029806
62	0x3e6266bd	0.22109504
63	0x3e21c078	0.15796077
64	0x3d8372fc	0.06418416
65	0xbe2a1975	-0.16611274
66	0xbeb9cf21	-0.3629084
67	0xbec87a2e	-0.39155716
68	0xbe8bfb1c	-0.2734002
69	0xbe0f82fb	-0.14014809
70	0xbe7b2322	-0.24525121
71	0xbec0b490	-0.37637758
72	0xbe39c284	-0.18140608
73	0xbdbab286	-0.09116082
74	0xbe115abd	-0.1419477
75	0x3d01c185	0.031678695
76	0x3cc2015c	0.023682289
77	0xbd09bc6c	-0.03362696
78	0x3d404322	0.046939023
79	0x3d8a87a3	0.06764152
80	0xbe3edfda	-0.1864008
81	0x3d3d72a4	0.046251908
82	0x3d58c7c0	0.05292487
83	0xbcedde3c	-0.029036634
84	0xbdaaca0a	-0.08339317
85	0x3e02a2c0	0.12757397
86	0x3d8cf55c	0.06882736
87	0x3d442465	0.04788627
88	0x3a76d349	0.0009415639
89	0xbd880257	-0.06641071
90	0x3d7e38fa	0.062066056
91	0xbe3630db	-0.17792074
92	0x3d485ae5	0.04891481
93	0xbcff1557	-0.031138105
94	0xbd301221	-0.04298604
95	0x3e5dd393	0.2166274
96	0x3df5e42b	0.1200641
97	0x3eaf3fba	0.34228307
98	0x3e0b518a	0.13605323
99	0x3d859815	0.06523148
100	0xbe15df8e	-0.1463606
101	0xbe14b861	-0.1452346
102	0xbe6196d3	-0.22030191
103	0xbe34d0dd	-0.176578
104	0xbe82d371	-0.25551942
105	0x3cbd98b0	0.023144096
106	0x3de3d95a	0.11125441
107	0xbce914c4	-0.028452285
108	0xbdbd0205	-0.09228901
109	0xbe4620d4	-0.1934846
110	0x3d6b9e43	0.057523977
111	0x3daaff4d	0.08349476
112	0x3d995db8	0.074885786
113	0xbcb7d1f6	-0.022438984
114	0xbe00caff	-0.12577437
115	0x3e81ea7d	0.25374213
116	0x3e77a511	0.24184062
117	0x3e76d68c	0.2410528
118	0x3e358086	0.17724809
119	0x3e2444de	0.16041896
120	0x3e95dc5c	0.29269683
121	0xbd8c2c89	-0.06844432
122	0xbe0f5368	-0.1399666
123	0xbe38abf2	-0.18034342
124	0xbd098ae0	-0.033579707
125	0x3e293485	0.16523941
126	0x3e21d122	0.15802434
127	0x3e4457a4	0.19174057
128	0xbadee1ab	-0.001700451
129	0xba700387	-0.0009155799
130	0x3d99f009	0.07516486
131	0xbd06e4bd	-0.032932986
132	0xbd356ba9	-0.044292126
133	0xbe194f78	-0.14971721
134	0xbe44106f	-0.19146894
135	0xbd1a89cb	-0.037729066
136	0x3d6416d9	0.05568585
137	0x3e3303cd	0.17481919
138	0x3e91f185	0.28504577
139	0x3e296cf8	0.16545475
140	0x3d1892e7	0.037249472
141	0xbdd99c4d	-0.10625515
142	0xbe96b551	-0.29435208
143	0xbe9789db	-0.29597363
144	0xbe8d1dec	-0.2756189
145	0xbe7b3ced	-0.2453496
146	0x3c0a34ee	0.008435471
147	0xbd382f50	-0.044966996
148	0x3d54357e	0.051808827
149	0xbdff39a6	-0.124621674
150	0x3e4ed609	0.20198835
151	0x3e79a2db	0.2437853
152	0xbf00c0d6	-0.50294244
153	0xbe947789	-0.28997448
154	0x3e21a8df	0.15787075
155	0x3e921068	0.28528142
156	0x3e6d0a17	0.2314838
157	0xbf6c7fad	-0.9238232
158	0xbc0f67c1	-0.008752764
159	0x3eb624b8	0.3557489
160	0x3ea68bb4	0.3252846
161	0x3d4d23b4	0.050082877
162	0xbf3ec87f	-0.7452468
163	0x3d83bf67	0.064329915
164	0x3e20fcfd	0.15721507
165	0x3e636d96	0.22209772
166	0xbedb2eec	-0.42809236
167	0xbeab3d96	-0.33445424
168	0x3e430b06	0.19047174
169	0x3d393b12	0.04522235
170	0x3e202865	0.1564041
171	0xbec4fa52	-0.3847223
172	0xbdc696cd	-0.09696732
173	0x3e70f1b3	0.23529701
174	0xbdb525fd	-0.08845136
175	0x3d7e8c6e	0.062145643
176	0x3df9c44d	0.121956445
177	0xbf2d5d2c	-0.67720294
178	0xbeb54506	-0.35404223
179	0x3e15b7fe	0.14620969
180	0x3ddccbe3	0.10781076
181	0xbe6841ae	-0.22681305
182	0xbf5a82e1	-0.85355955
183	0x3d106b9f	0.035258885
184	0x3db7e431	0.08979071
185	0x3d30293e	0.04300808
186	0xbeaa614a	-0.3327735
187	0xbf1a0d80	-0.6017685
188	0x3da4169f	0.08012127
189	0x3dd28cf8	0.10280794
190	0x3c0cc6d2	0.008592324
191	0xbe195829	-0.14975037
192	0xbe05f19a	-0.13080445
193	0x3e06ce4d	0.13164635
194	0xbcb8ce3c	-0.022559278
195	0x3d7a2111	0.06106669
196	0x3d907b88	0.07054812
197	0xbafe978f	-0.001942383
198	0x3e4c5345	0.1995364
199	0xbd227cbc	-0.039669737
200	0x3d9b50d7	0.07583778
201	0xbd33d46f	-0.043903764
202	0xbf054ced	-0.52070504
203	0xbd3997e1	-0.04531086
204	0x3dd59e73	0.104306124
205	0xbdabbdf7	-0.08385842
206	0xbe821e9a	-0.25413972
207	0xbf02b24f	-0.5105333
208	0x3e07c06d	0.13256998
209	0x3e237c22	0.15965322
210	0xbe45fff9	-0.19335927
211	0xbecde89a	-0.40216523
212	0xbe99915a	-0.29993707
213	0x3bc9e53c	0.00616136
214	0x3ccfdfa1	0.02537519
215	0xbdda6b72	-0.10665025
216	0xbe1ea072	-0.15490893
217	0xbb439593	-0.0029843792
218	0x3e357871	0.17721726
219	0xbe240d83	-0.1602078
220	0x3e569b69	0.20957722
221	0x3e221537	0.15828405
222	0x3e4072ed	0.1879384
223	0x3dd41a52	0.10356583
224	0xbe1c1523	-0.15242438
225	0x3e6b321e	0.22968337
226	0x3ba04937	0.0048915404
227	0xbf6c2eb2	-0.9225875
228	0x3dfa7b4e	0.1223055
229	0x3e67fdc3	0.22655396
230	0x3e45d7ed	0.1932065
231	0x3d93e7da	0.072219566
232	0xbf1b0b55	-0.60564166
233	0x3e240224	0.16016442
234	0x3e624728	0.22097456
235	0x3e283ada	0.164287
236	0xbedaee0a	-0.42759734
237	0xbeb819d2	-0.359572
238	0x3de6d676	0.11271374
239	0x3db5812b	0.088625275
240	0x3dd70c42	0.10500385
241	0xbead191b	-0.33808216
242	0xbd6086bd	-0.054815996
243	0x3e0db968	0.13840258
244	0xbe0a19d0	-0.13486409
245	0x3da4c338	0.080450475
246	0xbe03f227	-0.12885343
247	0x3e2b4cdf	0.16728543
248	0x3d8463f0	0.06464374
249	0xbea2cc80	-0.31796646
250	0x3dcb3753	0.09922662
251	0x3df6d17d	0.120516755
252	0xbe3050e3	-0.17218356
253	0xbeb0dde4	-0.3454429
254	0xbe02e09e	-0.12780997
255	0x3dd6719d	0.10470889

3.bias f4 [16]
0	0xbe4e176f	-0.20126127
1	0x3d6a666a	0.057226576
2	0xbe16486a	-0.14676061
3	0x3c182bd1	0.00928779
4	0x3e083fa2	0.13305524
5	0x3da38e8d	0.07986174
6	0xbe802fe6	-0.25036544
7	0x3dcfe9ae	0.10151993
8	0xbecf6d41	-0.40513042
9	0xbdec84ee	-0.11548792
10	0x3cff57ad	0.031169737
11	0x3e4ce4b3	0.20009117
12	0x3d85a1e9	0.065250225
13	0x3d1bdcc8	0.03805235
14	0xbe6a418c	-0.22876567
15	0xbdc9ebd8	-0.09859437

7.weight f4 [120, 400]
0	0xbe275057	-0.16339241
1	0x3e673d84	0.2258206
2	0xbc38f106	-0.011287933
3	0xbdd5ac2e	-0.10433231
4	0xbbe653a7	-0.007029015
5	0xbeb3c6d7	-0.3511264
6	0xbe79c897	-0.24392925
7	0x3ba86152	0.0051385546
8	0x3d932254	0.07184282
9	0x3dbc65ae	0.09199081
10	0x3e0e7950	0.13913465
11	0x3e71472b	0.23562305
12	0x3d1ec201	0.038759235
13	0x3e1dd639	0.1541375
14	0xbdd30cc4	-0.10305169
15	0xbee0fe9a	-0.43944246
16	0xbd3445ec	-0.044011995
17	0xbe3b81de	-0.18311259
18	0xbde51883	-0.11186316
19	0xbdd08f48	-0.10183579
20	0x3e6103b1	0.21974064
21	0x3dff9c12	0.1248094
22	0xbdbf260b	-0.09333428
23	0xbe997877	-0.2997472
24	0xbea3f349	-0.3202155
25	0x3d990843	0.07472279
26	0x3e298485	0.16554458
27	0xbdd3d306	-0.10342984
28	0xbea7cfb0	-0.3277564
29	0xbded7196	-0.115939304
30	0x3e5cabf5	0.21549971
31	0xbd01b736	-0.031668864
32	0xbe1722b5	-0.14759333
33	0xbd75db0d	-0.060023356
34	0xbe581d85	-0.21105011
35	0x3e2360cd	0.15954895
36	0xbc63e438	-0.013909392
37	0x3cc16ae0	0.023610532
38	0xbe13e29a	-0.1444191
39	0xbe180def	-0.14849065
40	0xbdb961f9	-0.0905189
41	0xbdda3bd2	-0.10655941
42	0x3d7bbc6e	0.061458997
43	0xbdf5889a	-0.11988945
44	0xbd3fbe74	-0.04681249
45	0xbc907632	-0.017634485
46	0xbdbb359a	-0.09141083
47	0xbe67ecb6	-0.22648892
48	0x3e333c73	0.17503528
49	0xbdbe8c1c	-0.093040675
50	0x3dc25431	0.094887145
51	0xbc906596	-0.017626565
52	0x3e409209	0.18805708
53	0xbe6ace44	-0.22930247
54	0xbe869c46	-0.26291102
55	0xbea97841	-0.3309956
56	0xbd210aed	-0.03931706
57	0xbcb64c22	-0.0222531
58	0x3e40b1a6	0.18817768
59	0xbd70f67f	-0.058828827
60	0x3e7ff8c2	0.24997237
61	0xbdbc87b4	-0.09205571
62	0x3ddd3427	0.10800963
63	0x3e1b42cd	0.15162201
64	0x3d802ea3	0.06258895
65	0x3e1d4b2d	0.15360709
66	0x3e7dcf90	0.2478621
67	0x3dc38e62	0.09548642
68	0xbc80b7c9	-0.015712636
69	0xbd4ae57d	-0.049535263
70	0xbe28192b	-0.16415851
71	0xbeae07a0	-0.33990192
72	0xbe3f9982	-0.18710902
73	0x3df621f5	0.120181955
74	0xbef4cee6	-0.478141
75	0xbe910400	-0.28323364
76	0xbe00cefd	-0.1257896
77	0xbe8f7ef7	-0.28026554
78	0xbe0f4c63	-0.13993983
79	0xbe2969c9	-0.1654426
80	0xbf285ff7	-0.6577143
81	0xbdb09c11	-0.08623517
82	0xbd6496f1	-0.05580801
83	0x3ca4dee2	0.02012581
84	0x3da5b3ba	0.08090921
85	0xbd092de8	-0.033491045
86	0x3db95d81	0.090510376
87	0x3e37a8a9	0.17935432
88	0x3e228f9b	0.15875094
89	0x3d7c6abf	0.06162524
90	0xbd4a7ba7	-0.04943433
91	0x3c1534d7	0.009106836
92	0xbe058092	-0.13037327
93	0x3bfe1edf	0.007755145
94	0x3c31c964	0.010851238
95	0x3e5e8e49	0.21733965
96	0x3d9c5dc1	0.0763507
97	0xbd34c94a	-0.044137277
98	0xbe73566d	-0.23763438
99	0xbd606594	-0.054784372
100	0xbced3fa2	-0.028961007
101	0x3d81789d	0.06321833
102	0x3bec7b11	0.007216819
103	0xbea5d490	-0.32388735
104	0xbf206e11	-0.6266795
105	0xbf007356	-0.5017599
106	0xbed6a9f8	-0.4192655
107	0xbd0200a6	-0.0317389
108	0xbd8ba703	-0.06818964
109	0xbdff4370	-0.124640346
110	0xbee5af5f	-0.4486036
111	0xbe69779c	-0.22799534
112	0xbe3fcbf7	-0.1873015
113	0xbde9a4b2	-0.11408366
114	0x3c307d4b	0.01077206
115	0x3cc239ab	0.023709139
116	0x3d9d541d	0.07682059
117	0x3e4fe603	0.20302586
118	0x3e8a16d0	0.2697053
119	0xbc28d3f2	-0.010304438
120	0x3c8e445d	0.017366583
121	0xbe2ba0f9	-0.16760625
122	0xbe1770cd	-0.14789124
123	0xbdbe5cc4	-0.092950374
124	0xba49bc05	-0.00076955586
125	0xbe1c59bd	-0.15268607
126	0xbe90ceca	-0.28282768
127	0xbd4cacbb	-0.049969416
128	0x3e28351f	0.16426514
129	0x3e2cbccd	0.16868897
130	0xbcd4e4b0	-0.025987953
131	0x3df9f142	0.122042194
132	0x3d2559d1	0.04036886
133	0xbd890fe7	-0.06692486
134	0xbd38c2ef	-0.04510778
135	0xbe91156e	-0.28336662
136	0x3ea41020	0.32043552
137	0x3d8ffeef	0.070310466
138	0x3cca2e82	0.02468038
139	0x3dfa8ca1	0.12233854
140	0xbd90b3eb	-0.07065567
141	0x3c4336f4	0.011914957
142	0xbe0e1e72	-0.13878801
143	0xbdd519b8	-0.10405296
144	0xbcc4b073	-0.024009919
145	0x3d81cbe3	0.063377164
146	0xbeae4c9c	-0.34042823
147	0x3e711cfc	0.23546213
148	0x3e447d56	0.19188437
149	0x3e84fb31	0.25972894
150	0xbd8ddf64	-0.06927374
151	0xba23f4cc	-0.0006254434
152	0x3dea400f	0.114379995
153	0x3dc13e8f	0.0943576
154	0x3e71b046	0.23602399
155	0xbe0f66b6	-0.14004025
156	0x3c2ac803	0.010423663
157	0xbd843f01	-0.064573295
158	0xbdbda03c	-0.09259078
159	0xbe8f2e93	-0.2796522
160	0xbf03e927	-0.5152764
161	0x3ea49fed	0.32153264
162	0x3dc68ff0	0.09695423
163	0x3cf4a967	0.029865934
164	0x3d3e7183	0.046494972
165	0xbd4d8eb7	-0.05018493
166	0xbb8a7e25	-0.0042264634
167	0xbe4cd44c	-0.2000286
168	0xbd8d4a1a	-0.068988994
169	0xbdb63072	-0.08895959
170	0x3c36f0ff	0.011165856
171	0x3d9f8cf9	0.0779056
172	0x3ebdba58	0.37056231
173	0x3d3e3199	0.04643402
174	0x3df18a32	0.11793937
175	0xbe7a4932	-0.24441984
176	0xbdf9bb0e	-0.12193881
177	0xbaeb7cd7	-0.0017966282
178	0x3d2db9b6	0.042413436
179	0x3e1b53b2	0.15168646
180	0xbe8c568f	-0.2740979
181	0x3d72137a	0.059100606
182	0x3e312d8b	0.1730253
183	0xbd5e090c	-0.054207847
184	0x3dec4669	0.11536867
185	0x3ea50d8b	0.32236895
186	0x3d5ac1e7	0.053407576
187	0x3e493d9d	0.1965241
188	0xbdf17b2e	-0.11791073
189	0x3e8e8ac6	0.2784025
190	0x3d2f46bc	0.042792067
191	0xbea35b9f	-0.3190584
192	0x3deb5d21	0.11492372
193	0x3e00a863	0.12564234
194	0xbe0e58ea	-0.13901106
195	0x3eaf605b	0.342532
196	0x3d180db9	0.037122462
197	0xbdead300	-0.11466026
198	0x3c69997b	0.014257784
199	0x3c624068	0.013809301
200	0x3e2b91a0	0.1675477
201	0x3ea74fbd	0.32678023
202	0x3e3a1f4b	0.18176
203	0x3d7a0969	0.06104413
204	0x3e39c4ea	0.18141523
205	0xbe256a43	-0.16153817
206	0xbe2bbd90	-0.16771531
207	0x3df8e6f3	0.12153425
208	0x3e49bb00	0.19700241
209	0x3e92de0b	0.2868503
210	0x3d86c49e	0.065804705
211	0x3dfa9d21	0.12237001
212	0x3cb397ae	0.021922912
213	0xbe8828a9	-0.2659352
214	0xbd23bfb3	-0.03997774
215	0xbdd537b6	-0.10411017
216	0xbdca9f54	-0.09893671
217	0x3daaec1f	0.08345818
218	0xbe207ee5	-0.15673406
219	0x3de2b5ca	0.1106983
220	0x3e516a51	0.20450713
221	0x3db99622	0.09061839
222	0xbd13baaf	-0.036066707
223	0xbd9f2f3e	-0.077726826
224	0x3e275dd6	0.1634439
225	0xbde1f356	-0.11032741
226	0xbf1fcfd9	-0.62426525
227	0x3e06ca5a	0.13163128
228	0x3c27c7d5	0.010240515
229	0x3e80f163	0.25184163
230	0x3eed0135	0.46289983
231	0x3e00362a	0.12520662
232	0xbd824d51	-0.06362403
233	0xbe39253d	-0.18080612
234	0xbe592b6a	-0.21207967
235	0xbec0d826	-0.37664908
236	0xbb8112c6	-0.0039390055
237	0x3e2b5a1b	0.16733591
238	0x3cf30b39	0.029668437
239	0x3dd5859b	0.10425874
240	0x3e868afa	0.26277906
241	0xbc2059db	-0.009787048
242	0xbea5bcc4	-0.3237058
243	0xbe96cd2c	-0.2945341
244	0xbd92167b	-0.07133194
245	0xbd6fc6ec	-0.058539316
246	0x3e93371b	0.2875298
247	0x3e247c9a	0.16063157
248	0x3d5aeccf	0.053448495
249	0xbe90a6b2	-0.28252178
250	0x3e256475	0.16151603
251	0xbd3e3882	-0.04644061
252	0x3e2faad0	0.17155004
253	0xbc623847	-0.013807363
254	0x3e4381d3	0.19092493
255	0xbdfd7c50	-0.12377226

7.bias f4 [120]
0	0x3e8199d1	0.25312665
1	0xbda9838f	-0.08277046
2	0x3cec437c	0.028840773
3	0xbdcf9fc7	-0.10137897
4	0x3dc47699	0.09592933
5	0xbc6a8e2f	-0.014316126
6	0x3d6b3eb5	0.05743285
7	0xbe22b0db	-0.15887778
8	0xbd038cee	-0.032116823
9	0x3d7fe306	0.062472366
10	0xbe25ae2e	-0.16179726
11	0xbda7185b	-0.08158942
12	0xbe028f6e	-0.12750027
13	0x3db43e72	0.08800973
14	0x3d06cae3	0.03290833
15	0xbc9d3bbe	-0.019193526
16	0xbcce1bbf	-0.025159715
17	0x3cea432b	0.028596481
18	0x3e18c475	0.14918692
19	0x3b9ccff4	0.004785532
20	0x3e85e690	0.26152468
21	0xbe235434	-0.1595009
22	0x3e47fa15	0.19528992
23	0xbd2f41d1	-0.042787377
24	0xbe7f7bb8	-0.24949539
25	0xbbc5ad86	-0.0060326485
26	0x3d895fc6	0.067077205
27	0x3e71d382	0.2361584
28	0x3e0777fb	0.13229363
29	0xbd4abdd8	-0.049497455
30	0xbdbf7d03	-0.09350016
31	0xbe22b593	-0.15889578
32	0x3ded9129	0.11599953
33	0x3e9d05ba	0.30668432
34	0x3c3603d6	0.011109313
35	0xbd8ef60d	-0.06980524
36	0xbd1bfde6	-0.038083933
37	0xbd35e8d1	-0.044411484
38	0xbb65fb60	-0.0035092458
39	0x3de0283f	0.10945176
40	0x3e2fab5b	0.1715521
41	0xb99502d7	-0.0002842161
42	0x3d92117f	0.07132243
43	0xbcf58ff3	-0.029975867
44	0xbb5c0300	-0.0033571124
45	0xbe3c9ed9	-0.1841997
46	0x3c86ae8f	0.016440658
47	0x3dcda3a5	0.10040978
48	0x3df561f4	0.11981574
49	0xbd090833	-0.033455085
50	0xbdb34c5d	-0.087547995
51	0xbcbd184e	-0.023082878
52	0xbc2702b8	-0.010193519
53	0xbdae3954	-0.08507028
54	0xbc8dc785	-0.017307052
55	0x3ab3e72c	0.0013725511
56	0xbe2423ba	-0.16029254
57	0x3e8a6912	0.27033287
58	0x3e13e460	0.14442587
59	0x3e67822d	0.22608252
60	0xbadda880	-0.0016911179
61	0x3e722363	0.23646311
62	0xbe33b7c1	-0.17550565
63	0xbe44fbbd	-0.19236656
64	0xbcba4e52	-0.022742424
65	0x3d8f2d67	0.06991082
66	0x3e28a4fe	0.1646919
67	0xbd05dc20	-0.03268063
68	0xbcc68960	-0.024235427
69	0x3e85f34d	0.26162186
70	0xbe47f964	-0.19528729
71	0xbd1708f5	-0.036873776
72	0x3e570abf	0.21000193
73	0x3d109e63	0.0353073
74	0x3d089f6c	0.03335516
75	0x3d5476f2	0.051871248
76	0xbd3b37a8	-0.045707375
77	0x3c30baab	0.010786693
78	0xbdc28438	-0.09497875
79	0xbde7d796	-0.11320417
80	0xbca4e2f8	-0.020127758
81	0xbceeb0a6	-0.029136967
82	0xbd819f5e	-0.06329225
83	0xbd6d8802	-0.057991035
84	0xbd5db13e	-0.05412411
85	0xbdf54413	-0.11975875
86	0x3e298652	0.16555145
87	0xbd385382	-0.045001514
88	0xbd0f613a	-0.03500483
89	0xbb7e1f6e	-0.0038776058
90	0xbd619b2c	-0.055079624
91	0xbdc44d34	-0.09585038
92	0xbd106b0a	-0.03525833
93	0x3de03110	0.10946858
94	0x3deb0ac8	0.11476666
95	0xbd6bdf8a	-0.05758623
96	0x3e667005	0.2250367
97	0x3ce2d424	0.027689047
98	0xbdda43ea	-0.10657485
99	0xbcf688fe	-0.03009462
100	0x3e01a2d4	0.1265977
101	0x3be20775	0.0068978616
102	0xbe1d1561	-0.15340187
103	0xbd5343bd	-0.051578272
104	0xbca655c8	-0.020304576
105	0xbdc3442c	-0.09534487
106	0x3e1bab2f	0.1520202
107	0xbd866ab8	-0.06563324
108	0x3da25b47	0.07927566
109	0x3e374fd8	0.17901552
110	0xbd594abd	-0.05304979
111	0xbd43eca2	-0.047833093
112	0xbd08cadc	-0.033396587
113	0x3db6d090	0.08926499
114	0xbd43c117	-0.047791567
115	0x3d85b54a	0.06528719
116	0xbcd34bfa	-0.025793064
117	0xbd4ae334	-0.049533084
118	0x3cc00ee9	0.02344461
119	0xbd803985	-0.06260971

9.weight f4 [84, 120]
0	0xbd61be0d	-0.055112887
1	0x3de866ec	0.11347756
2	0x3d7f0bb7	0.06226703
3	0xbd5f4ad1	-0.05451471
4	0xbd9f967a	-0.07792373
5	0x3dc32115	0.09527794
6	0xbf044c05	-0.51678497
7	0x3c7e215e	0.015510885
8	0xbd2ebeb7	-0.04266235
9	0xbdea93f8	-0.11454004
10	0xbdf060d7	-0.11737221
11	0xbd3d3318	-0.046191305
12	0xbd7da8ed	-0.06192868
13	0x3deba06b	0.11505207
14	0x3e0d84e1	0.1382022
15	0x3cb54ee0	0.022132337
16	0xbe2e31b6	-0.1701115
17	0x3d762bf1	0.0601005
18	0xbbe51758	-0.006991308
19	0xbe045ff7	-0.12927233
20	0x3e4800f0	0.19531608
21	0xbe6b5291	-0.22980715
22	0x3e4c142c	0.1992957
23	0xbd4b04f6	-0.049565278
24	0xbee9e2d0	-0.45680857
25	0x3ce880a8	0.02838166
26	0x3e3cd33b	0.18439953
27	0x3dfc120d	0.123081304
28	0x3d1a1dc3	0.03762604
29	0xbc2b623c	-0.010460433
30	0xbe28382a	-0.16427675
31	0xbe9a82d3	-0.30177936
32	0x3d9e432b	0.07727655
33	0x3e1c3f12	0.15258434
34	0xbdc1d8ad	-0.09465156
35	0xbe87086e	-0.2637362
36	0x3e1ae893	0.15127783
37	0x3d44d734	0.048056796
38	0x3d5d503f	0.054031607
39	0x3dc8366b	0.097760044
40	0x3ccee8c9	0.025257485
41	0xbcb95e66	-0.02262802
42	0x3eb25c15	0.34835878
43	0xbde138db	-0.109971724
44	0xbd411624	-0.047140256
45	0xbe144952	-0.14481094
46	0xbeb4c65e	-0.35307592
47	0x3dc6d072	0.097077265
48	0xbe07a116	-0.13245043
49	0x3ce31619	0.027720498
50	0x3d8dd620	0.06925607
51	0x3f0ab61c	0.54184127
52	0x3c6af5a3	0.014340791
53	0x3e02a6b3	0.12758903
54	0xbd969d84	-0.073542625
55	0xbca16ba4	-0.019704647
56	0xbf14ee72	-0.5817634
57	0x3e6fd6ad	0.23421736
58	0xbe74169e	-0.23836753
59	0x3dcf092e	0.10109173
60	0xbd1936ef	-0.037405904
61	0xbe1e8c39	-0.15483178
62	0x3e1be5f0	0.15224433
63	0xbdff0a0c	-0.12453088
64	0xbe92616a	-0.28589946
65	0x3e236898	0.15957868
66	0x3dc9420a	0.09827049
67	0x3ca1d325	0.019754002
68	0xbd745eb1	-0.059660617
69	0x3ec6d955	0.38837686
70	0xbdc8b7c2	-0.09800674
71	0x3d8fc68a	0.0702029
72	0x3dddc618	0.10828799
73	0x3d310212	0.043214865
74	0xbe8e1dc3	-0.2775708
75	0x3de5f718	0.1122877
76	0x3da6a384	0.08136657
77	0xbdc7ae16	-0.09750001
78	0xbe6587b1	-0.22415043
79	0x3cce1e9e	0.025161084
80	0x3de1d9cd	0.1102787
81	0x3da42d13	0.0801641
82	0xbdc9bb61	-0.09850193
83	0x3e307733	0.17232971
84	0x3ece8870	0.4033847
85	0x3e1ef073	0.15521412
86	0x3e33f33f	0.1757326
87	0xbd90789e	-0.07054256
88	0x3d10154a	0.035176553
89	0x3d80530e	0.062658414
90	0xbd8b407e	-0.0679941
91	0x3cd6c83d	0.026218528
92	0xbc12cfaf	-0.008960648
93	0x3ddb17bd	0.10697887
94	0xbea3434c	-0.3188728
95	0x3d839551	0.06424964
96	0x3e7b1af8	0.24522007
97	0x3c91e690	0.017810136
98	0xbca4e36e	-0.020127978
99	0xbddad777	-0.10685628
100	0xbd9896de	-0.07450651
101	0xbde15480	-0.11002445
102	0xbe74fad1	-0.23923804
103	0xbc26f4a8	-0.0101901665
104	0xbdd6b544	-0.104837924
105	0x3cb946eb	0.022616824
106	0x3de5a6d1	0.11213458
107	0xbe90d498	-0.28287196
108	0xbdff1d44	-0.12456754
109	0x3d35958f	0.044332083
110	0xbd0af068	-0.033920676
111	0xbe2bfe0f	-0.16796134
112	0xbd3f5714	-0.046713904
113	0x3e43d740	0.1912508
114	0xbd716564	-0.058934584
115	0xbe85f74a	-0.2616523
116	0x3e4804fa	0.19533148
117	0xbe71b4a7	-0.2360407
118	0xbe40b62f	-0.18819498
119	0xbd5dbcbc	-0.05413507
120	0xbe8ebc2c	-0.2787794
121	0xbe31765f	-0.17330311
122	0x3db6274e	0.088942155
123	0xbd2a66ad	-0.041601826
124	0xbdd4dc01	-0.10393525
125	0x3e55fac9	0.20896448
126	0xbc0f3a10	-0.0087418705
127	0x3d4dafd4	0.05021651
128	0xbd929e94	-0.071591526
129	0x3e31436c	0.17310876
130	0xbe20dcde	-0.15709254
131	0xbea77e64	-0.32713616
132	0x3db6f754	0.08933893
133	0x3e62ce5d	0.22149034
134	0xbe6eb450	-0.23310971
135	0x3db41296	0.087926075
136	0xbdded2fb	-0.10880085
137	0x3d8f6588	0.070017874
138	0xbe959f61	-0.2922316
139	0xbe281ee1	-0.1641803
140	0xbdefa19e	-0.11700748
141	0xbe74f884	-0.23922926
142	0xbe60a246	-0.21936902
143	0xbdac9ed6	-0.08428733
144	0x3e1352cf	0.14387058
145	0xbe55a327	-0.20863019
146	0xbe7593eb	-0.23982207
147	0xbdefc2a1	-0.117070444
148	0x3c981b95	0.01856784
149	0xbd757741	-0.059928183
150	0x3e84c310	0.2593007
151	0xbded5797	-0.11588972
152	0x3e4cf28d	0.20014401
153	0x3cd708f1	0.02624938
154	0xbbab80d9	-0.0052338657
155	0x3e27fbd9	0.16404666
156	0xbd3b8ebc	-0.04579042
157	0xbc6bb940	-0.014387429
158	0x3c1eeb4a	0.009699652
159	0xbde9d4ea	-0.11417563
160	0x3dac303c	0.084076375
161	0x3e09baf7	0.13450228
162	0xbe0e8e35	-0.13921435
163	0x3d78ff8a	0.060790576
164	0x3d17fc58	0.037105888
165	0x3dd624ab	0.104562126
166	0xbe1fd284	-0.15607649
167	0xbe1c773f	-0.15279864
168	0x3d3407dc	0.043952808
169	0x3d6dbbab	0.058040302
170	0xbc509df6	-0.012732973
171	0xbddbcb27	-0.107321076
172	0xbc8f502b	-0.017494282
173	0xbd0ce3d8	-0.034396976
174	0x3d8fae6e	0.07015692
175	0xbdabd8bd	-0.08390949
176	0xbe01044e	-0.12599298
177	0xbea6c6f2	-0.32573658
178	0xbe8941fc	-0.26808155
179	0xbe59dd91	-0.21275927
180	0xbd6c29b8	-0.057656974
181	0xbeab22e6	-0.33425063
182	0x3c9ac6cf	0.018893627
183	0xbea4c12f	-0.32178637
184	0x3d10c568	0.03534451
185	0x3c9c79cc	0.019101046
186	0xbdc71c6f	-0.0972222
187	0xba8ea51e	-0.0010882949
188	0x3d8c5984	0.06853011
189	0xbe8e657d	-0.27811804
190	0x3decd7b3	0.11564579
191	0xbe352e7b	-0.17693512
192	0xbddcc1f6	-0.107791826
193	0xbe4490b4	-0.19195825
194	0xbe4111e0	-0.18854475
195	0x3df7a5b4	0.12092152
196	0x3e5ea9fe	0.21744534
197	0x3d9a3793	0.07530131
198	0x3e2f85e0	0.17140913
199	0xbe3a511e	-0.18195006
200	0x3d6fe294	0.05856569
201	0xbbf229ae	-0.0073902225
202	0x3e560c89	0.2090322
203	0x3ec39acc	0.38204038
204	0x3cc9743d	0.02459156
205	0x3d54132f	0.051776107
206	0x3c255804	0.010091785
207	0xbc0f8330	-0.008759305
208	0x3d9aba77	0.075550966
209	0xbde3ae9a	-0.11117287
210	0xbda6de9f	-0.0814793
211	0x3d75a365	0.05997028
212	0xbcbba86c	-0.022907458
213	0xbdb7f858	-0.08982915
214	0xbe380162	-0.17969278
215	0xbd5947f1	-0.053047124
216	0x3e4327c0	0.19058132
217	0xbcf2f9e3	-0.02966017
218	0x3ddd56ed	0.108075954
219	0xbc02f438	-0.007992797
220	0xbe0b9f79	-0.13635053
221	0x3e53e25e	0.20691821
222	0xbd7b2d36	-0.061322413
223	0x3d71d24e	0.059038453
224	0xbd8a8886	-0.06764321
225	0xbd6f0222	-0.058351643
226	0x3d0f22f5	0.034945447
227	0xbc630e61	-0.013858409
228	0xbde41242	-0.11136295
229	0xbea13f40	-0.31493568
230	0xbc85b980	-0.016323805
231	0xbe041633	-0.12899093
232	0xbd720d1e	-0.05909454
233	0xbe9c9959	-0.30585745
234	0x3d5be180	0.05368185
235	0xbdb5c77e	-0.08875941
236	0x3e17e6f3	0.14834194
237	0x3d70da5f	0.058802005
238	0xbcbeabb6	-0.023275238
239	0x3d24c9dc	0.04023157
240	0xbd65854c	-0.056035325
241	0xbc79cdf7	-0.01524686
242	0xbe41b5bc	-0.18916982
243	0x3d0b1b28	0.033961445
244	0xbe0aafbe	-0.13543603
245	0xbda3005c	-0.07959053
246	0xbd85034c	-0.064947695
247	0x3e7267fb	0.23672478
248	0xbd03128e	-0.032000117
249	0x3debdbac	0.115165085
250	0x3d3a6100	0.045502663
251	0x3e3923f0	0.18080115
252	0xbce1c118	-0.027557895
253	0xbdc26455	-0.09491793
254	0x3de5be8f	0.11217987
255	0x3d7f60e0	0.062348247

9.bias f4 [84]
0	0x3e5bdfc7	0.21472083
1	0xbd6674c8	-0.056263715
2	0xbdd23855	-0.10264651
3	0xbc9c729d	-0.01909762
4	0xbe4664b5	-0.19374354
5	0xbd00cf2e	-0.031447582
6	0xbd1ce50f	-0.038304385
7	0x3def1fe0	0.116760015
8	0x3eb647ab	0.35601553
9	0x3e5319c8	0.20615304
10	0x3e0e96a0	0.13924646
11	0xbd156da8	-0.03648153
12	0xbe730f95	-0.23736413
13	0x3e6b2cb7	0.22966276
14	0x3e3eddec	0.18639344
15	0x3c914c53	0.01773659
16	0xbd4854a6	-0.048908852
17	0x3df1acab	0.11800512
18	0x3df45696	0.119305775
19	0xbdc6ade1	-0.097011335
20	0xbdefab61	-0.1170261
21	0xbc95db23	-0.01829297
22	0xbe82c5a2	-0.25541407
23	0x3dd63b14	0.10460487
24	0x3e62686b	0.22110145
25	0x3d09362f	0.03349894
26	0x3e5fb0bd	0.21844764
27	0x3e51ffdd	0.2050776
28	0xbd44f118	-0.048081487
29	0xbdb42f68	-0.087981045
30	0xbaa26716	-0.0012390341
31	0x3b90f399	0.0044235704
32	0xbd428abf	-0.0474956
33	0xbdcdb5e7	-0.10044461
34	0x3de7b880	0.113144875
35	0x3dd71109	0.10501296
36	0xbb116670	-0.0022186302
37	0x3dcb6bc1	0.09932662
38	0xbdfb8d83	-0.122828506
39	0xbe033e75	-0.12816794
40	0x3e1e9edb	0.15490286
41	0xbe057301	-0.13032152
42	0xbc503a58	-0.012709223
43	0xbcf1c450	-0.029512554
44	0x3cb2f310	0.021844417
45	0x3c8aaf65	0.016929338
46	0x3e221528	0.15828383
47	0x3dc2fd71	0.09520996
48	0x3dffcf19	0.124906726
49	0xbde498b7	-0.111619405
50	0x3e0399d1	0.12851645
51	0xbdc2bc87	-0.09508615
52	0x3db89148	0.09012085
53	0xbbd931b3	-0.006628239
54	0x38e546cc	0.00010932758
55	0x3dc43f22	0.09582354
56	0xbc6422fb	-0.013924356
57	0xbdd815fb	-0.105510674
58	0x3e109781	0.14120294
59	0x3e50d9c9	0.20395578
60	0x3e20c252	0.15699127
61	0xbd810e3e	-0.063015446
62	0x3d89c3df	0.067268126
63	0x3d869a4e	0.065724
64	0x3d57de42	0.052702196
65	0x3b351938	0.002763344
66	0x3e222a96	0.15836558
67	0x3dc16cde	0.09444593
68	0xbd20eb55	-0.03928693
69	0xbdbc65bd	-0.091990925
70	0x3def30a9	0.11679203
71	0xbd147af9	-0.03625009
72	0x3d95ec3e	0.0732045
73	0xbd81ea5d	-0.063435294
74	0x3de47c3d	0.11156509
75	0x3e25c097	0.16186748
76	0x3bbe37a2	0.005804972
77	0x3d30f323	0.043200623
78	0xbdc089d6	-0.0940129
79	0xbab83d8a	-0.0014056426
80	0xbd91498c	-0.07094106
81	0x3e6d137c	0.23151964
82	0xbe0d7469	-0.13813938
83	0xbe0a5bb8	-0.1351155

11.weight f4 [10, 84]
0	0x3e056c20	0.13029528
1	0xbe81b2c7	-0.2533171
2	0x3e6dd285	0.23224838
3	0xbde329a7	-0.11091929
4	0xbd5426bc	-0.051794752
5	0xbe7d46f2	-0.24734095
6	0xbe3575b8	-0.17720687
7	0x3d97059f	0.07374119
8	0x3d7382db	0.059450965
9	0xbe16f039	-0.14740075
10	0xbdc3e139	-0.09564442
11	0xbe942e5a	-0.28941613
12	0x3e14590e	0.14487097
13	0x3c9b0530	0.018923372
14	0x3dff534f	0.12467062
15	0xbe8588e5	-0.26081005
16	0xbe09f150	-0.1347096
17	0xbeab2fe3	-0.33434972
18	0xbef768dd	-0.48322192
19	0x3e0b8b0c	0.13627261
20	0xbe7ea429	-0.2486731
21	0x3e7401a5	0.23828752
22	0xbd350ac4	-0.04419972
23	0x3e3b865e	0.18312976
24	0xbe8e1d24	-0.27756608
25	0x3e1b5179	0.15167798
26	0xbd8379b9	-0.06419701
27	0x3e1c39d0	0.15256429
28	0xbe985647	-0.29753324
29	0xbdb885db	-0.09009906
30	0xbeb435ce	-0.351973
31	0x3e195765	0.14974745
32	0x3e09405b	0.13403456
33	0x3d2cbe9d	0.04217397
34	0xbe4a5e1d	-0.19762464
35	0x3dce70fc	0.10080144
36	0xbdaa465a	-0.083142
37	0xbd04f7f5	-0.032463033
38	0xbea9a2be	-0.33131975
39	0xbc8ecddb	-0.017432144
40	0x3e1d39d9	0.15354098
41	0xbc661adf	-0.0140444925
42	0x3c019d5e	0.007911054
43	0x3effc149	0.49952152
44	0x3e58f200	0.21186066
45	0xbe8d09f0	-0.27546644
46	0xbe757583	-0.23970608
47	0xbe37ab1e	-0.1793637
48	0x3d7e100b	0.06202702
49	0xbd4723a5	-0.048617978
50	0x3dcfb66a	0.101422146
51	0x3dabad06	0.08382611
52	0xbe9b56f3	-0.30339774
53	0xbce5a4b4	-0.028032638
54	0xbc78ecee	-0.015193207
55	0x3da11e42	0.07867099
56	0x3e5671bd	0.20941825
57	0xbeece09d	-0.46265116
58	0xbe9cb4ef	-0.3060679
59	0x3c5c9137	0.013462356
60	0xbe8235fd	-0.25431815
61	0xbe1a2dcf	-0.15056537
62	0xbe5c73ac	-0.215285
63	0xbe40cbd1	-0.1882775
64	0x3ce25245	0.02762712
65	0xbde1556d	-0.11002622
66	0xbe78d1de	-0.24298808
67	0xbe947e53	-0.29002628
68	0x3e9bfba1	0.30465415
69	0x3bdfdea5	0.006831961
70	0xbdb79fb5	-0.089660086
71	0xbdd62ace	-0.10457383
72	0xbefc7b22	-0.49312693
73	0xbe3086e8	-0.17238963
74	0xbc09cdc9	-0.008410879
75	0x3d18c8a6	0.03730073
76	0x3e512642	0.2042475
77	0xbe22acf0	-0.15886283
78	0xbda62dd6	-0.08114211
79	0xbe68824c	-0.22705954
80	0x3e68bdc8	0.22728646
81	0xbe282f01	-0.1642418
82	0x3dd51461	0.104042776
83	0xbd1c9b1c	-0.03823386
84	0xbddafab4	-0.10692349
85	0x3e226767	0.15859757
86	0xbf05d581	-0.52278906
87	0xbed223bd	-0.4104289
88	0x3d8f3887	0.069932036
89	0x3e65ce82	0.22442058
90	0xbdbf90e7	-0.0935381
91	0xbebfd1b4	-0.37464678
92	0xbdf7d389	-0.12100894
93	0x3d50b794	0.050956324
94	0xbea60cf1	-0.32431749
95	0x3ec8c5e4	0.3921348
96	0x3e47c995	0.19510491
97	0xbebe1548	-0.3712561
98	0xbd0cd625	-0.03438391
99	0xbef0845b	-0.4697598
100	0x3c54d241	0.012989582
101	0xbbbbf3a1	-0.00573583
102	0x3dc38865	0.095474996
103	0xbdbaf02c	-0.091278404
104	0x3b2ca638	0.0026344191
105	0x3e1984bc	0.1499204
106	0x3e753d78	0.2394923
107	0xbeb30b42	-0.34969527
108	0x3d8f88cd	0.070085146
109	0xbeed7c39	-0.46383837
110	0xbe2de73b	-0.16982739
111	0x3dc9704a	0.098358706
112	0x3e427ed6	0.18993697
113	0xbe0f31b6	-0.13983807
114	0x3d24b035	0.040207107
115	0xbe3d53ce	-0.18489
116	0xbf7fe801	-0.99963385
117	0x3d8e7f4e	0.06957875
118	0x3d84ba46	0.06480841
119	0xbf045940	-0.51698685
120	0xbc6bc165	-0.014389371
121	0xbc3cbaf8	-0.011519186
122	0x3e5f6812	0.21817043
123	0xbda2c12e	-0.07947002
124	0xbd1f9de8	-0.03896895
125	0xbeb31764	-0.34978783
126	0x3e9bec86	0.3045389
127	0x3db8fd0e	0.09032641
128	0xbc6198d3	-0.013769346
129	0x3dd5de4e	0.10442792
130	0x3da26374	0.079291254
131	0xbe02694d	-0.12735482
132	0xbdc292c0	-0.095006466
133	0x3d51dc27	0.051235344
134	0xbe5db585	-0.21651275
135	0x3d9ade5e	0.075619444
136	0xbec1064d	-0.3770012
137	0xbd6509e6	-0.055917643
138	0x3dd9d482	0.10636236
139	0x3e327944	0.17429072
140	0xbe428674	-0.18996602
141	0x3eb52628	0.35380673
142	0xbe8c130f	-0.2735829
143	0xbe81c877	-0.25348255
144	0x3dce7640	0.10081148
145	0x3d820b90	0.063498616
146	0xbee0df2c	-0.43920267
147	0x3da5c1ca	0.08093603
148	0xbec0c305	-0.37648788
149	0xbcff625f	-0.031174837
150	0xbe6dd444	-0.23225504
151	0x3ddec797	0.108779125
152	0xbed3683a	-0.41290456
153	0xbdfb064a	-0.12257059
154	0xbedc7623	-0.4305888
155	0xbee9470c	-0.45562017
156	0xbe3dcaee	-0.18534443
157	0xbd9ac249	-0.07556588
158	0x3da594cd	0.08085022
159	0xbe0f219c	-0.13977665
160	0xbe34358c	-0.17598552
161	0x3e83a6e4	0.25713265
162	0x3c14754b	0.009061168
163	0xbea28fc1	-0.317503
164	0x3e05975e	0.13046023
165	0xbe22c0c0	-0.15893841
166	0x3eb9296d	0.36164418
167	0x3d83d2c6	0.06436686
168	0xbd042105	-0.032258052
169	0xbe8f15fe	-0.27946466
170	0xbf0d69ca	-0.55239546
171	0xbd0e36c1	-0.034720186
172	0x3b23a635	0.0024970893
173	0xbdb33710	-0.08750737
174	0xbe1957fd	-0.14974971
175	0x3d7d00a2	0.06176818
176	0xbf1c33df	-0.6101665
177	0x3da1cf2b	0.07900842
178	0xbeecd6b0	-0.46257544
179	0xbe97a87d	-0.29620734
180	0xbdcb1900	-0.09916878
181	0xbe121103	-0.14264302
182	0x3d82d30a	0.06387909
183	0x3e0675bd	0.13130851
184	0xbdc7c5a6	-0.09754495
185	0xbe7cd155	-0.24689229
186	0x3c9c85e6	0.019106817
187	0x3e6fc7ff	0.23416136
188	0xbe86812a	-0.2627042
189	0x3e9a5f62	0.30150896
190	0x3d8eaa2c	0.069660515
191	0x3e2d4d64	0.16924053
192	0x3d106c2d	0.035259414
193	0xbe19feb1	-0.15038563
194	0x3e1c2c72	0.1525133
195	0xbe86dbba	-0.26339513
196	0xbdfb6ee4	-0.1227701
197	0xbd09e0b0	-0.033661544
198	0x3e0f4042	0.13989356
199	0xbe531144	-0.20612055
200	0xbe6cccf5	-0.2312506
201	0x3ce237fc	0.027614586
202	0x3de7ca35	0.11317865
203	0xbed3289a	-0.41241914
204	0xbdb277ca	-0.08714254
205	0x3df516dc	0.11967251
206	0x3d137b48	0.036006242
207	0x3d54205a	0.051788665
208	0xbe7d9790	-0.24764848
209	0xbdf789f4	-0.12086859
210	0xbeaef396	-0.34170216
211	0xbe7fd5f8	-0.24983966
212	0xbeb4c238	-0.35304427
213	0xbe2fa5e5	-0.17153127
214	0xbe4015cc	-0.18758315
215	0x3e06766c	0.13131112
216	0x3e52e6e7	0.20595895
217	0x3d231575	0.039815385
218	0x3e238901	0.15970232
219	0xbcf7be3e	-0.030242082
220	0xbd91aeeb	-0.07113441
221	0xbd08f2df	-0.033434745
222	0x3da88e7b	0.08230301
223	0x3db980a1	0.09057737
224	0xbf018073	-0.5058662
225	0xbea569ac	-0.32307184
226	0xbe9edf14	-0.3102957
227	0x3dde1bf4	0.108451754
228	0x3dd8ebb1	0.105918296
229	0x3d3ea9bf	0.0465486
230	0x3e37ce67	0.1794983
231	0x3da6b006	0.081390426
232	0xbea20f74	-0.31652415
233	0x3e7d7a61	0.24753715
234	0xbe890678	-0.26762748
235	0xbe892d7b	-0.2679251
236	0xbea57904	-0.3231889
237	0xbd3f8a06	-0.04676249
238	0x3d5d4562	0.054021247
239	0xbd2f450e	-0.042790465
240	0xbee64eec	-0.44982088
241	0xbef3189f	-0.47479722
242	0xbd9e8e51	-0.077419885
243	0xbf1f60fb	-0.62257355
244	0x3e42f225	0.19037683
245	0x3e2d19b5	0.16904338
246	0xbc4d15e0	-0.012517422
247	0x3d804a39	0.06264157
248	0xbf32ab92	-0.69793046
249	0xbeaa20de	-0.332282
250	0xbdea6292	-0.11444582
251	0xbdb2169d	-0.086957194
252	0xbe57f20c	-0.21088427
253	0x3c3391a7	0.010960019
254	0xbcf3d665	-0.029765317
255	0x3e9344fc	0.28763568

11.bias f4 [10]
0	0xbdfccc69	-0.12343676
1	0xbe3e9798	-0.18612516
2	0x3d9c41a0	0.076297045
3	0xbdc3f568	-0.09568292
4	0x3d8f6934	0.07002488
5	0xbcc9795d	-0.024594003
6	0xbdc392e9	-0.09549505
7	0xbe17aa86	-0.14811143
8	0x3e9d179a	0.3068207
9	0x3cddaa36	0.027058702
